<?xml version="1.0" encoding="UTF-8"?>
<net name="RMNet_LReLU with SSD head for Action Detection and Action Recognition" version="10">
	<layers>
		<layer id="0" name="data" type="Parameter" version="opset1">
			<data element_type="f16" shape="1,3,400,680"/>
			<output>
				<port id="0" precision="FP16">
					<dim>1</dim>
					<dim>3</dim>
					<dim>400</dim>
					<dim>680</dim>
				</port>
			</output>
		</layer>
		<layer id="1" name="data_mul_46459/copy_const1381_const" type="Const" version="opset1">
			<data element_type="f16" offset="0" shape="1,3,1,1" size="6"/>
			<output>
				<port id="1" precision="FP16">
					<dim>1</dim>
					<dim>3</dim>
					<dim>1</dim>
					<dim>1</dim>
				</port>
			</output>
		</layer>
		<layer id="2" name="data/norm/bn/mean/Fused_Mul_" type="Multiply" version="opset1">
			<input>
				<port id="0">
					<dim>1</dim>
					<dim>3</dim>
					<dim>400</dim>
					<dim>680</dim>
				</port>
				<port id="1">
					<dim>1</dim>
					<dim>3</dim>
					<dim>1</dim>
					<dim>1</dim>
				</port>
			</input>
			<output>
				<port id="2" precision="FP16">
					<dim>1</dim>
					<dim>3</dim>
					<dim>400</dim>
					<dim>680</dim>
				</port>
			</output>
		</layer>
		<layer id="3" name="data_add_46461/copy_const1383_const" type="Const" version="opset1">
			<data element_type="f16" offset="6" shape="1,3,1,1" size="6"/>
			<output>
				<port id="1" precision="FP16">
					<dim>1</dim>
					<dim>3</dim>
					<dim>1</dim>
					<dim>1</dim>
				</port>
			</output>
		</layer>
		<layer id="4" name="data/norm/bn/variance/Fused_Add_" type="Add" version="opset1">
			<input>
				<port id="0">
					<dim>1</dim>
					<dim>3</dim>
					<dim>400</dim>
					<dim>680</dim>
				</port>
				<port id="1">
					<dim>1</dim>
					<dim>3</dim>
					<dim>1</dim>
					<dim>1</dim>
				</port>
			</input>
			<output>
				<port id="2" precision="FP16">
					<dim>1</dim>
					<dim>3</dim>
					<dim>400</dim>
					<dim>680</dim>
				</port>
			</output>
		</layer>
		<layer id="5" name="74417445_const" type="Const" version="opset1">
			<data element_type="f16" offset="12" shape="" size="2"/>
			<output>
				<port id="1" precision="FP16"/>
			</output>
		</layer>
		<layer id="6" name="74427446_const" type="Const" version="opset1">
			<data element_type="f16" offset="14" shape="" size="2"/>
			<output>
				<port id="1" precision="FP16"/>
			</output>
		</layer>
		<layer id="7" name="74437447_const" type="Const" version="opset1">
			<data element_type="f16" offset="12" shape="" size="2"/>
			<output>
				<port id="1" precision="FP16"/>
			</output>
		</layer>
		<layer id="8" name="74447448_const" type="Const" version="opset1">
			<data element_type="f16" offset="14" shape="" size="2"/>
			<output>
				<port id="1" precision="FP16"/>
			</output>
		</layer>
		<layer id="9" name="init_block1/dim_inc/conv/fq_input_0" type="FakeQuantize" version="opset1">
			<data levels="256"/>
			<input>
				<port id="0">
					<dim>1</dim>
					<dim>3</dim>
					<dim>400</dim>
					<dim>680</dim>
				</port>
				<port id="1"/>
				<port id="2"/>
				<port id="3"/>
				<port id="4"/>
			</input>
			<output>
				<port id="5" precision="FP16">
					<dim>1</dim>
					<dim>3</dim>
					<dim>400</dim>
					<dim>680</dim>
				</port>
			</output>
		</layer>
		<layer id="10" name="init_block1/dim_inc/conv/fq_weights_1/Convert_to_float/Cast_023547_const" type="Const" version="opset1">
			<data element_type="u8" offset="16" shape="32,3,3,3" size="864"/>
			<output>
				<port id="1" precision="U8">
					<dim>32</dim>
					<dim>3</dim>
					<dim>3</dim>
					<dim>3</dim>
				</port>
			</output>
		</layer>
		<layer id="11" name="init_block1/dim_inc/conv/fq_weights_1/Convert_to_float" type="Convert" version="opset1">
			<data destination_type="f16"/>
			<input>
				<port id="0">
					<dim>32</dim>
					<dim>3</dim>
					<dim>3</dim>
					<dim>3</dim>
				</port>
			</input>
			<output>
				<port id="1" precision="FP16">
					<dim>32</dim>
					<dim>3</dim>
					<dim>3</dim>
					<dim>3</dim>
				</port>
			</output>
		</layer>
		<layer id="12" name="init_block1/dim_inc/conv/fq_weights_1/Copy/out_low19961_const" type="Const" version="opset1">
			<data element_type="f16" offset="880" shape="1" size="2"/>
			<output>
				<port id="1" precision="FP16">
					<dim>1</dim>
				</port>
			</output>
		</layer>
		<layer id="13" name="init_block1/dim_inc/conv/fq_weights_1/Copy/out_high19962_const" type="Const" version="opset1">
			<data element_type="f16" offset="882" shape="1" size="2"/>
			<output>
				<port id="1" precision="FP16">
					<dim>1</dim>
				</port>
			</output>
		</layer>
		<layer id="14" name="74537457_const" type="Const" version="opset1">
			<data element_type="f16" offset="884" shape="32,1,1,1" size="64"/>
			<output>
				<port id="1" precision="FP16">
					<dim>32</dim>
					<dim>1</dim>
					<dim>1</dim>
					<dim>1</dim>
				</port>
			</output>
		</layer>
		<layer id="15" name="74547458_const" type="Const" version="opset1">
			<data element_type="f16" offset="948" shape="32,1,1,1" size="64"/>
			<output>
				<port id="1" precision="FP16">
					<dim>32</dim>
					<dim>1</dim>
					<dim>1</dim>
					<dim>1</dim>
				</port>
			</output>
		</layer>
		<layer id="16" name="init_block1/dim_inc/conv/fq_weights_1" type="FakeQuantize" version="opset1">
			<data levels="255"/>
			<input>
				<port id="0">
					<dim>32</dim>
					<dim>3</dim>
					<dim>3</dim>
					<dim>3</dim>
				</port>
				<port id="1">
					<dim>1</dim>
				</port>
				<port id="2">
					<dim>1</dim>
				</port>
				<port id="3">
					<dim>32</dim>
					<dim>1</dim>
					<dim>1</dim>
					<dim>1</dim>
				</port>
				<port id="4">
					<dim>32</dim>
					<dim>1</dim>
					<dim>1</dim>
					<dim>1</dim>
				</port>
			</input>
			<output>
				<port id="5" precision="FP16">
					<dim>32</dim>
					<dim>3</dim>
					<dim>3</dim>
					<dim>3</dim>
				</port>
			</output>
		</layer>
		<layer id="17" name="init_block1/dim_inc/conv" type="Convolution" version="opset1">
			<data dilations="1,1" output_padding="0,0" pads_begin="1,1" pads_end="1,1" strides="2,2"/>
			<input>
				<port id="0">
					<dim>1</dim>
					<dim>3</dim>
					<dim>400</dim>
					<dim>680</dim>
				</port>
				<port id="1">
					<dim>32</dim>
					<dim>3</dim>
					<dim>3</dim>
					<dim>3</dim>
				</port>
			</input>
			<output>
				<port id="2" precision="FP16">
					<dim>1</dim>
					<dim>32</dim>
					<dim>200</dim>
					<dim>340</dim>
				</port>
			</output>
		</layer>
		<layer id="18" name="data_add_4646446469/copy_const1387_const" type="Const" version="opset1">
			<data element_type="f16" offset="1012" shape="1,32,1,1" size="64"/>
			<output>
				<port id="1" precision="FP16">
					<dim>1</dim>
					<dim>32</dim>
					<dim>1</dim>
					<dim>1</dim>
				</port>
			</output>
		</layer>
		<layer id="19" name="init_block1/dim_inc/bn/variance/Fused_Add_" type="Add" version="opset1">
			<input>
				<port id="0">
					<dim>1</dim>
					<dim>32</dim>
					<dim>200</dim>
					<dim>340</dim>
				</port>
				<port id="1">
					<dim>1</dim>
					<dim>32</dim>
					<dim>1</dim>
					<dim>1</dim>
				</port>
			</input>
			<output>
				<port id="2" precision="FP16">
					<dim>1</dim>
					<dim>32</dim>
					<dim>200</dim>
					<dim>340</dim>
				</port>
			</output>
		</layer>
		<layer id="20" name="init_block1/dim_inc/fn" type="ReLU" version="opset1">
			<input>
				<port id="0">
					<dim>1</dim>
					<dim>32</dim>
					<dim>200</dim>
					<dim>340</dim>
				</port>
			</input>
			<output>
				<port id="1" precision="FP16">
					<dim>1</dim>
					<dim>32</dim>
					<dim>200</dim>
					<dim>340</dim>
				</port>
			</output>
		</layer>
		<layer id="21" name="64616465_const" type="Const" version="opset1">
			<data element_type="f16" offset="1076" shape="" size="2"/>
			<output>
				<port id="1" precision="FP16"/>
			</output>
		</layer>
		<layer id="22" name="64626466_const" type="Const" version="opset1">
			<data element_type="f16" offset="1078" shape="" size="2"/>
			<output>
				<port id="1" precision="FP16"/>
			</output>
		</layer>
		<layer id="23" name="64636467_const" type="Const" version="opset1">
			<data element_type="f16" offset="1076" shape="" size="2"/>
			<output>
				<port id="1" precision="FP16"/>
			</output>
		</layer>
		<layer id="24" name="64646468_const" type="Const" version="opset1">
			<data element_type="f16" offset="1078" shape="" size="2"/>
			<output>
				<port id="1" precision="FP16"/>
			</output>
		</layer>
		<layer id="25" name="bottleneck1_1/add/fq_input_0" type="FakeQuantize" version="opset1">
			<data levels="256"/>
			<input>
				<port id="0">
					<dim>1</dim>
					<dim>32</dim>
					<dim>200</dim>
					<dim>340</dim>
				</port>
				<port id="1"/>
				<port id="2"/>
				<port id="3"/>
				<port id="4"/>
			</input>
			<output>
				<port id="5" precision="FP16">
					<dim>1</dim>
					<dim>32</dim>
					<dim>200</dim>
					<dim>340</dim>
				</port>
			</output>
		</layer>
		<layer id="26" name="bottleneck1_1/dim_red/conv/fq_weights_1/Convert_to_float/Cast_023207_const" type="Const" version="opset1">
			<data element_type="u8" offset="1080" shape="8,32,1,1" size="256"/>
			<output>
				<port id="1" precision="U8">
					<dim>8</dim>
					<dim>32</dim>
					<dim>1</dim>
					<dim>1</dim>
				</port>
			</output>
		</layer>
		<layer id="27" name="bottleneck1_1/dim_red/conv/fq_weights_1/Convert_to_float" type="Convert" version="opset1">
			<data destination_type="f16"/>
			<input>
				<port id="0">
					<dim>8</dim>
					<dim>32</dim>
					<dim>1</dim>
					<dim>1</dim>
				</port>
			</input>
			<output>
				<port id="1" precision="FP16">
					<dim>8</dim>
					<dim>32</dim>
					<dim>1</dim>
					<dim>1</dim>
				</port>
			</output>
		</layer>
		<layer id="28" name="bottleneck1_1/dim_red/conv/fq_weights_1/Copy/out_low18673_const" type="Const" version="opset1">
			<data element_type="f16" offset="1336" shape="1" size="2"/>
			<output>
				<port id="1" precision="FP16">
					<dim>1</dim>
				</port>
			</output>
		</layer>
		<layer id="29" name="bottleneck1_1/dim_red/conv/fq_weights_1/Copy/out_high18674_const" type="Const" version="opset1">
			<data element_type="f16" offset="882" shape="1" size="2"/>
			<output>
				<port id="1" precision="FP16">
					<dim>1</dim>
				</port>
			</output>
		</layer>
		<layer id="30" name="60736077_const" type="Const" version="opset1">
			<data element_type="f16" offset="1338" shape="8,1,1,1" size="16"/>
			<output>
				<port id="1" precision="FP16">
					<dim>8</dim>
					<dim>1</dim>
					<dim>1</dim>
					<dim>1</dim>
				</port>
			</output>
		</layer>
		<layer id="31" name="60746078_const" type="Const" version="opset1">
			<data element_type="f16" offset="1354" shape="8,1,1,1" size="16"/>
			<output>
				<port id="1" precision="FP16">
					<dim>8</dim>
					<dim>1</dim>
					<dim>1</dim>
					<dim>1</dim>
				</port>
			</output>
		</layer>
		<layer id="32" name="bottleneck1_1/dim_red/conv/fq_weights_1" type="FakeQuantize" version="opset1">
			<data levels="255"/>
			<input>
				<port id="0">
					<dim>8</dim>
					<dim>32</dim>
					<dim>1</dim>
					<dim>1</dim>
				</port>
				<port id="1">
					<dim>1</dim>
				</port>
				<port id="2">
					<dim>1</dim>
				</port>
				<port id="3">
					<dim>8</dim>
					<dim>1</dim>
					<dim>1</dim>
					<dim>1</dim>
				</port>
				<port id="4">
					<dim>8</dim>
					<dim>1</dim>
					<dim>1</dim>
					<dim>1</dim>
				</port>
			</input>
			<output>
				<port id="5" precision="FP16">
					<dim>8</dim>
					<dim>32</dim>
					<dim>1</dim>
					<dim>1</dim>
				</port>
			</output>
		</layer>
		<layer id="33" name="bottleneck1_1/dim_red/conv" type="Convolution" version="opset1">
			<data dilations="1,1" output_padding="0,0" pads_begin="0,0" pads_end="0,0" strides="1,1"/>
			<input>
				<port id="0">
					<dim>1</dim>
					<dim>32</dim>
					<dim>200</dim>
					<dim>340</dim>
				</port>
				<port id="1">
					<dim>8</dim>
					<dim>32</dim>
					<dim>1</dim>
					<dim>1</dim>
				</port>
			</input>
			<output>
				<port id="2" precision="FP16">
					<dim>1</dim>
					<dim>8</dim>
					<dim>200</dim>
					<dim>340</dim>
				</port>
			</output>
		</layer>
		<layer id="34" name="data_add_4647246477/copy_const1392_const" type="Const" version="opset1">
			<data element_type="f16" offset="1370" shape="1,8,1,1" size="16"/>
			<output>
				<port id="1" precision="FP16">
					<dim>1</dim>
					<dim>8</dim>
					<dim>1</dim>
					<dim>1</dim>
				</port>
			</output>
		</layer>
		<layer id="35" name="bottleneck1_1/dim_red/bn/variance/Fused_Add_" type="Add" version="opset1">
			<input>
				<port id="0">
					<dim>1</dim>
					<dim>8</dim>
					<dim>200</dim>
					<dim>340</dim>
				</port>
				<port id="1">
					<dim>1</dim>
					<dim>8</dim>
					<dim>1</dim>
					<dim>1</dim>
				</port>
			</input>
			<output>
				<port id="2" precision="FP16">
					<dim>1</dim>
					<dim>8</dim>
					<dim>200</dim>
					<dim>340</dim>
				</port>
			</output>
		</layer>
		<layer id="36" name="bottleneck1_1/dim_red/fn60131/Cast_123559_const" type="Const" version="opset1">
			<data element_type="f32" offset="1386" shape="1" size="4"/>
			<output>
				<port id="1" precision="FP32">
					<dim>1</dim>
				</port>
			</output>
		</layer>
		<layer id="37" name="bottleneck1_1/dim_red/fn60131" type="PReLU" version="opset1">
			<input>
				<port id="0">
					<dim>1</dim>
					<dim>8</dim>
					<dim>200</dim>
					<dim>340</dim>
				</port>
				<port id="1">
					<dim>1</dim>
				</port>
			</input>
			<output>
				<port id="2" precision="FP16">
					<dim>1</dim>
					<dim>8</dim>
					<dim>200</dim>
					<dim>340</dim>
				</port>
			</output>
		</layer>
		<layer id="38" name="86018605_const" type="Const" version="opset1">
			<data element_type="f16" offset="1390" shape="1,8,1,1" size="16"/>
			<output>
				<port id="1" precision="FP16">
					<dim>1</dim>
					<dim>8</dim>
					<dim>1</dim>
					<dim>1</dim>
				</port>
			</output>
		</layer>
		<layer id="39" name="86028606_const" type="Const" version="opset1">
			<data element_type="f16" offset="1406" shape="1,8,1,1" size="16"/>
			<output>
				<port id="1" precision="FP16">
					<dim>1</dim>
					<dim>8</dim>
					<dim>1</dim>
					<dim>1</dim>
				</port>
			</output>
		</layer>
		<layer id="40" name="86038607_const" type="Const" version="opset1">
			<data element_type="f16" offset="1390" shape="1,8,1,1" size="16"/>
			<output>
				<port id="1" precision="FP16">
					<dim>1</dim>
					<dim>8</dim>
					<dim>1</dim>
					<dim>1</dim>
				</port>
			</output>
		</layer>
		<layer id="41" name="86048608_const" type="Const" version="opset1">
			<data element_type="f16" offset="1406" shape="1,8,1,1" size="16"/>
			<output>
				<port id="1" precision="FP16">
					<dim>1</dim>
					<dim>8</dim>
					<dim>1</dim>
					<dim>1</dim>
				</port>
			</output>
		</layer>
		<layer id="42" name="bottleneck1_1/inner/dw1/conv/fq_input_0" type="FakeQuantize" version="opset1">
			<data levels="256"/>
			<input>
				<port id="0">
					<dim>1</dim>
					<dim>8</dim>
					<dim>200</dim>
					<dim>340</dim>
				</port>
				<port id="1">
					<dim>1</dim>
					<dim>8</dim>
					<dim>1</dim>
					<dim>1</dim>
				</port>
				<port id="2">
					<dim>1</dim>
					<dim>8</dim>
					<dim>1</dim>
					<dim>1</dim>
				</port>
				<port id="3">
					<dim>1</dim>
					<dim>8</dim>
					<dim>1</dim>
					<dim>1</dim>
				</port>
				<port id="4">
					<dim>1</dim>
					<dim>8</dim>
					<dim>1</dim>
					<dim>1</dim>
				</port>
			</input>
			<output>
				<port id="5" precision="FP16">
					<dim>1</dim>
					<dim>8</dim>
					<dim>200</dim>
					<dim>340</dim>
				</port>
			</output>
		</layer>
		<layer id="43" name="bottleneck1_1/inner/dw1/conv/fq_weights_1/Convert_to_float/Cast_023051_const" type="Const" version="opset1">
			<data element_type="u8" offset="1422" shape="8,1,3,3" size="72"/>
			<output>
				<port id="1" precision="U8">
					<dim>8</dim>
					<dim>1</dim>
					<dim>3</dim>
					<dim>3</dim>
				</port>
			</output>
		</layer>
		<layer id="44" name="bottleneck1_1/inner/dw1/conv/fq_weights_1/Convert_to_float" type="Convert" version="opset1">
			<data destination_type="f16"/>
			<input>
				<port id="0">
					<dim>8</dim>
					<dim>1</dim>
					<dim>3</dim>
					<dim>3</dim>
				</port>
			</input>
			<output>
				<port id="1" precision="FP16">
					<dim>8</dim>
					<dim>1</dim>
					<dim>3</dim>
					<dim>3</dim>
				</port>
			</output>
		</layer>
		<layer id="45" name="bottleneck1_1/inner/dw1/conv/fq_weights_1/Copy/out_low18969_const" type="Const" version="opset1">
			<data element_type="f16" offset="1336" shape="1" size="2"/>
			<output>
				<port id="1" precision="FP16">
					<dim>1</dim>
				</port>
			</output>
		</layer>
		<layer id="46" name="bottleneck1_1/inner/dw1/conv/fq_weights_1/Copy/out_high18970_const" type="Const" version="opset1">
			<data element_type="f16" offset="882" shape="1" size="2"/>
			<output>
				<port id="1" precision="FP16">
					<dim>1</dim>
				</port>
			</output>
		</layer>
		<layer id="47" name="86138617_const" type="Const" version="opset1">
			<data element_type="f16" offset="1494" shape="8,1,1,1" size="16"/>
			<output>
				<port id="1" precision="FP16">
					<dim>8</dim>
					<dim>1</dim>
					<dim>1</dim>
					<dim>1</dim>
				</port>
			</output>
		</layer>
		<layer id="48" name="86148618_const" type="Const" version="opset1">
			<data element_type="f16" offset="1510" shape="8,1,1,1" size="16"/>
			<output>
				<port id="1" precision="FP16">
					<dim>8</dim>
					<dim>1</dim>
					<dim>1</dim>
					<dim>1</dim>
				</port>
			</output>
		</layer>
		<layer id="49" name="bottleneck1_1/inner/dw1/conv/fq_weights_1" type="FakeQuantize" version="opset1">
			<data levels="255"/>
			<input>
				<port id="0">
					<dim>8</dim>
					<dim>1</dim>
					<dim>3</dim>
					<dim>3</dim>
				</port>
				<port id="1">
					<dim>1</dim>
				</port>
				<port id="2">
					<dim>1</dim>
				</port>
				<port id="3">
					<dim>8</dim>
					<dim>1</dim>
					<dim>1</dim>
					<dim>1</dim>
				</port>
				<port id="4">
					<dim>8</dim>
					<dim>1</dim>
					<dim>1</dim>
					<dim>1</dim>
				</port>
			</input>
			<output>
				<port id="5" precision="FP16">
					<dim>8</dim>
					<dim>1</dim>
					<dim>3</dim>
					<dim>3</dim>
				</port>
			</output>
		</layer>
		<layer id="50" name="26210/value26212_const" type="Const" version="opset1">
			<data element_type="i64" offset="1526" shape="5" size="40"/>
			<output>
				<port id="1" precision="I64">
					<dim>5</dim>
				</port>
			</output>
		</layer>
		<layer id="51" name="26210" type="Reshape" version="opset1">
			<data special_zero="True"/>
			<input>
				<port id="0">
					<dim>8</dim>
					<dim>1</dim>
					<dim>3</dim>
					<dim>3</dim>
				</port>
				<port id="1">
					<dim>5</dim>
				</port>
			</input>
			<output>
				<port id="2" precision="FP16">
					<dim>8</dim>
					<dim>1</dim>
					<dim>1</dim>
					<dim>3</dim>
					<dim>3</dim>
				</port>
			</output>
		</layer>
		<layer id="52" name="bottleneck1_1/inner/dw1/conv" type="GroupConvolution" version="opset1">
			<data dilations="1,1" output_padding="0,0" pads_begin="1,1" pads_end="1,1" strides="1,1"/>
			<input>
				<port id="0">
					<dim>1</dim>
					<dim>8</dim>
					<dim>200</dim>
					<dim>340</dim>
				</port>
				<port id="1">
					<dim>8</dim>
					<dim>1</dim>
					<dim>1</dim>
					<dim>3</dim>
					<dim>3</dim>
				</port>
			</input>
			<output>
				<port id="2" precision="FP16">
					<dim>1</dim>
					<dim>8</dim>
					<dim>200</dim>
					<dim>340</dim>
				</port>
			</output>
		</layer>
		<layer id="53" name="data_add_4648046485/copy_const1398_const" type="Const" version="opset1">
			<data element_type="f16" offset="1566" shape="1,8,1,1" size="16"/>
			<output>
				<port id="1" precision="FP16">
					<dim>1</dim>
					<dim>8</dim>
					<dim>1</dim>
					<dim>1</dim>
				</port>
			</output>
		</layer>
		<layer id="54" name="bottleneck1_1/inner/dw1/bn/variance/Fused_Add_" type="Add" version="opset1">
			<input>
				<port id="0">
					<dim>1</dim>
					<dim>8</dim>
					<dim>200</dim>
					<dim>340</dim>
				</port>
				<port id="1">
					<dim>1</dim>
					<dim>8</dim>
					<dim>1</dim>
					<dim>1</dim>
				</port>
			</input>
			<output>
				<port id="2" precision="FP16">
					<dim>1</dim>
					<dim>8</dim>
					<dim>200</dim>
					<dim>340</dim>
				</port>
			</output>
		</layer>
		<layer id="55" name="bottleneck1_1/inner/dw1/fn60051/Cast_123073_const" type="Const" version="opset1">
			<data element_type="f32" offset="1386" shape="1" size="4"/>
			<output>
				<port id="1" precision="FP32">
					<dim>1</dim>
				</port>
			</output>
		</layer>
		<layer id="56" name="bottleneck1_1/inner/dw1/fn60051" type="PReLU" version="opset1">
			<input>
				<port id="0">
					<dim>1</dim>
					<dim>8</dim>
					<dim>200</dim>
					<dim>340</dim>
				</port>
				<port id="1">
					<dim>1</dim>
				</port>
			</input>
			<output>
				<port id="2" precision="FP16">
					<dim>1</dim>
					<dim>8</dim>
					<dim>200</dim>
					<dim>340</dim>
				</port>
			</output>
		</layer>
		<layer id="57" name="47414745_const" type="Const" version="opset1">
			<data element_type="f16" offset="1582" shape="" size="2"/>
			<output>
				<port id="1" precision="FP16"/>
			</output>
		</layer>
		<layer id="58" name="47424746_const" type="Const" version="opset1">
			<data element_type="f16" offset="1584" shape="" size="2"/>
			<output>
				<port id="1" precision="FP16"/>
			</output>
		</layer>
		<layer id="59" name="47434747_const" type="Const" version="opset1">
			<data element_type="f16" offset="1582" shape="" size="2"/>
			<output>
				<port id="1" precision="FP16"/>
			</output>
		</layer>
		<layer id="60" name="47444748_const" type="Const" version="opset1">
			<data element_type="f16" offset="1584" shape="" size="2"/>
			<output>
				<port id="1" precision="FP16"/>
			</output>
		</layer>
		<layer id="61" name="bottleneck1_1/dim_inc/conv/fq_input_0" type="FakeQuantize" version="opset1">
			<data levels="256"/>
			<input>
				<port id="0">
					<dim>1</dim>
					<dim>8</dim>
					<dim>200</dim>
					<dim>340</dim>
				</port>
				<port id="1"/>
				<port id="2"/>
				<port id="3"/>
				<port id="4"/>
			</input>
			<output>
				<port id="5" precision="FP16">
					<dim>1</dim>
					<dim>8</dim>
					<dim>200</dim>
					<dim>340</dim>
				</port>
			</output>
		</layer>
		<layer id="62" name="bottleneck1_1/dim_inc/conv/fq_weights_1/Convert_to_float/Cast_022833_const" type="Const" version="opset1">
			<data element_type="u8" offset="1586" shape="32,8,1,1" size="256"/>
			<output>
				<port id="1" precision="U8">
					<dim>32</dim>
					<dim>8</dim>
					<dim>1</dim>
					<dim>1</dim>
				</port>
			</output>
		</layer>
		<layer id="63" name="bottleneck1_1/dim_inc/conv/fq_weights_1/Convert_to_float" type="Convert" version="opset1">
			<data destination_type="f16"/>
			<input>
				<port id="0">
					<dim>32</dim>
					<dim>8</dim>
					<dim>1</dim>
					<dim>1</dim>
				</port>
			</input>
			<output>
				<port id="1" precision="FP16">
					<dim>32</dim>
					<dim>8</dim>
					<dim>1</dim>
					<dim>1</dim>
				</port>
			</output>
		</layer>
		<layer id="64" name="bottleneck1_1/dim_inc/conv/fq_weights_1/Copy/out_low19329_const" type="Const" version="opset1">
			<data element_type="f16" offset="1336" shape="1" size="2"/>
			<output>
				<port id="1" precision="FP16">
					<dim>1</dim>
				</port>
			</output>
		</layer>
		<layer id="65" name="bottleneck1_1/dim_inc/conv/fq_weights_1/Copy/out_high19330_const" type="Const" version="opset1">
			<data element_type="f16" offset="882" shape="1" size="2"/>
			<output>
				<port id="1" precision="FP16">
					<dim>1</dim>
				</port>
			</output>
		</layer>
		<layer id="66" name="47534757_const" type="Const" version="opset1">
			<data element_type="f16" offset="1842" shape="32,1,1,1" size="64"/>
			<output>
				<port id="1" precision="FP16">
					<dim>32</dim>
					<dim>1</dim>
					<dim>1</dim>
					<dim>1</dim>
				</port>
			</output>
		</layer>
		<layer id="67" name="47544758_const" type="Const" version="opset1">
			<data element_type="f16" offset="1906" shape="32,1,1,1" size="64"/>
			<output>
				<port id="1" precision="FP16">
					<dim>32</dim>
					<dim>1</dim>
					<dim>1</dim>
					<dim>1</dim>
				</port>
			</output>
		</layer>
		<layer id="68" name="bottleneck1_1/dim_inc/conv/fq_weights_1" type="FakeQuantize" version="opset1">
			<data levels="255"/>
			<input>
				<port id="0">
					<dim>32</dim>
					<dim>8</dim>
					<dim>1</dim>
					<dim>1</dim>
				</port>
				<port id="1">
					<dim>1</dim>
				</port>
				<port id="2">
					<dim>1</dim>
				</port>
				<port id="3">
					<dim>32</dim>
					<dim>1</dim>
					<dim>1</dim>
					<dim>1</dim>
				</port>
				<port id="4">
					<dim>32</dim>
					<dim>1</dim>
					<dim>1</dim>
					<dim>1</dim>
				</port>
			</input>
			<output>
				<port id="5" precision="FP16">
					<dim>32</dim>
					<dim>8</dim>
					<dim>1</dim>
					<dim>1</dim>
				</port>
			</output>
		</layer>
		<layer id="69" name="bottleneck1_1/dim_inc/conv" type="Convolution" version="opset1">
			<data dilations="1,1" output_padding="0,0" pads_begin="0,0" pads_end="0,0" strides="1,1"/>
			<input>
				<port id="0">
					<dim>1</dim>
					<dim>8</dim>
					<dim>200</dim>
					<dim>340</dim>
				</port>
				<port id="1">
					<dim>32</dim>
					<dim>8</dim>
					<dim>1</dim>
					<dim>1</dim>
				</port>
			</input>
			<output>
				<port id="2" precision="FP16">
					<dim>1</dim>
					<dim>32</dim>
					<dim>200</dim>
					<dim>340</dim>
				</port>
			</output>
		</layer>
		<layer id="70" name="data_add_4648846493/copy_const1404_const" type="Const" version="opset1">
			<data element_type="f16" offset="1970" shape="1,32,1,1" size="64"/>
			<output>
				<port id="1" precision="FP16">
					<dim>1</dim>
					<dim>32</dim>
					<dim>1</dim>
					<dim>1</dim>
				</port>
			</output>
		</layer>
		<layer id="71" name="bottleneck1_1/dim_inc/bn/variance/Fused_Add_" type="Add" version="opset1">
			<input>
				<port id="0">
					<dim>1</dim>
					<dim>32</dim>
					<dim>200</dim>
					<dim>340</dim>
				</port>
				<port id="1">
					<dim>1</dim>
					<dim>32</dim>
					<dim>1</dim>
					<dim>1</dim>
				</port>
			</input>
			<output>
				<port id="2" precision="FP16">
					<dim>1</dim>
					<dim>32</dim>
					<dim>200</dim>
					<dim>340</dim>
				</port>
			</output>
		</layer>
		<layer id="72" name="64716475_const" type="Const" version="opset1">
			<data element_type="f16" offset="2034" shape="" size="2"/>
			<output>
				<port id="1" precision="FP16"/>
			</output>
		</layer>
		<layer id="73" name="64726476_const" type="Const" version="opset1">
			<data element_type="f16" offset="2036" shape="" size="2"/>
			<output>
				<port id="1" precision="FP16"/>
			</output>
		</layer>
		<layer id="74" name="64736477_const" type="Const" version="opset1">
			<data element_type="f16" offset="2034" shape="" size="2"/>
			<output>
				<port id="1" precision="FP16"/>
			</output>
		</layer>
		<layer id="75" name="64746478_const" type="Const" version="opset1">
			<data element_type="f16" offset="2036" shape="" size="2"/>
			<output>
				<port id="1" precision="FP16"/>
			</output>
		</layer>
		<layer id="76" name="bottleneck1_1/add/fq_input_1" type="FakeQuantize" version="opset1">
			<data levels="256"/>
			<input>
				<port id="0">
					<dim>1</dim>
					<dim>32</dim>
					<dim>200</dim>
					<dim>340</dim>
				</port>
				<port id="1"/>
				<port id="2"/>
				<port id="3"/>
				<port id="4"/>
			</input>
			<output>
				<port id="5" precision="FP16">
					<dim>1</dim>
					<dim>32</dim>
					<dim>200</dim>
					<dim>340</dim>
				</port>
			</output>
		</layer>
		<layer id="77" name="bottleneck1_1/add" type="Add" version="opset1">
			<input>
				<port id="0">
					<dim>1</dim>
					<dim>32</dim>
					<dim>200</dim>
					<dim>340</dim>
				</port>
				<port id="1">
					<dim>1</dim>
					<dim>32</dim>
					<dim>200</dim>
					<dim>340</dim>
				</port>
			</input>
			<output>
				<port id="2" precision="FP16">
					<dim>1</dim>
					<dim>32</dim>
					<dim>200</dim>
					<dim>340</dim>
				</port>
			</output>
		</layer>
		<layer id="78" name="bottleneck1_1/fn59991/Cast_123321_const" type="Const" version="opset1">
			<data element_type="f32" offset="1386" shape="1" size="4"/>
			<output>
				<port id="1" precision="FP32">
					<dim>1</dim>
				</port>
			</output>
		</layer>
		<layer id="79" name="bottleneck1_1/fn59991" type="PReLU" version="opset1">
			<input>
				<port id="0">
					<dim>1</dim>
					<dim>32</dim>
					<dim>200</dim>
					<dim>340</dim>
				</port>
				<port id="1">
					<dim>1</dim>
				</port>
			</input>
			<output>
				<port id="2" precision="FP16">
					<dim>1</dim>
					<dim>32</dim>
					<dim>200</dim>
					<dim>340</dim>
				</port>
			</output>
		</layer>
		<layer id="80" name="79617965_const" type="Const" version="opset1">
			<data element_type="f16" offset="2038" shape="" size="2"/>
			<output>
				<port id="1" precision="FP16"/>
			</output>
		</layer>
		<layer id="81" name="79627966_const" type="Const" version="opset1">
			<data element_type="f16" offset="2040" shape="" size="2"/>
			<output>
				<port id="1" precision="FP16"/>
			</output>
		</layer>
		<layer id="82" name="79637967_const" type="Const" version="opset1">
			<data element_type="f16" offset="2038" shape="" size="2"/>
			<output>
				<port id="1" precision="FP16"/>
			</output>
		</layer>
		<layer id="83" name="79647968_const" type="Const" version="opset1">
			<data element_type="f16" offset="2040" shape="" size="2"/>
			<output>
				<port id="1" precision="FP16"/>
			</output>
		</layer>
		<layer id="84" name="bottleneck1_2/add/fq_input_0" type="FakeQuantize" version="opset1">
			<data levels="256"/>
			<input>
				<port id="0">
					<dim>1</dim>
					<dim>32</dim>
					<dim>200</dim>
					<dim>340</dim>
				</port>
				<port id="1"/>
				<port id="2"/>
				<port id="3"/>
				<port id="4"/>
			</input>
			<output>
				<port id="5" precision="FP16">
					<dim>1</dim>
					<dim>32</dim>
					<dim>200</dim>
					<dim>340</dim>
				</port>
			</output>
		</layer>
		<layer id="85" name="bottleneck1_2/dim_red/conv/fq_weights_1/Convert_to_float/Cast_023147_const" type="Const" version="opset1">
			<data element_type="u8" offset="2042" shape="8,32,1,1" size="256"/>
			<output>
				<port id="1" precision="U8">
					<dim>8</dim>
					<dim>32</dim>
					<dim>1</dim>
					<dim>1</dim>
				</port>
			</output>
		</layer>
		<layer id="86" name="bottleneck1_2/dim_red/conv/fq_weights_1/Convert_to_float" type="Convert" version="opset1">
			<data destination_type="f16"/>
			<input>
				<port id="0">
					<dim>8</dim>
					<dim>32</dim>
					<dim>1</dim>
					<dim>1</dim>
				</port>
			</input>
			<output>
				<port id="1" precision="FP16">
					<dim>8</dim>
					<dim>32</dim>
					<dim>1</dim>
					<dim>1</dim>
				</port>
			</output>
		</layer>
		<layer id="87" name="bottleneck1_2/dim_red/conv/fq_weights_1/Copy/out_low18625_const" type="Const" version="opset1">
			<data element_type="f16" offset="1336" shape="1" size="2"/>
			<output>
				<port id="1" precision="FP16">
					<dim>1</dim>
				</port>
			</output>
		</layer>
		<layer id="88" name="bottleneck1_2/dim_red/conv/fq_weights_1/Copy/out_high18626_const" type="Const" version="opset1">
			<data element_type="f16" offset="882" shape="1" size="2"/>
			<output>
				<port id="1" precision="FP16">
					<dim>1</dim>
				</port>
			</output>
		</layer>
		<layer id="89" name="84138417_const" type="Const" version="opset1">
			<data element_type="f16" offset="2298" shape="8,1,1,1" size="16"/>
			<output>
				<port id="1" precision="FP16">
					<dim>8</dim>
					<dim>1</dim>
					<dim>1</dim>
					<dim>1</dim>
				</port>
			</output>
		</layer>
		<layer id="90" name="84148418_const" type="Const" version="opset1">
			<data element_type="f16" offset="2314" shape="8,1,1,1" size="16"/>
			<output>
				<port id="1" precision="FP16">
					<dim>8</dim>
					<dim>1</dim>
					<dim>1</dim>
					<dim>1</dim>
				</port>
			</output>
		</layer>
		<layer id="91" name="bottleneck1_2/dim_red/conv/fq_weights_1" type="FakeQuantize" version="opset1">
			<data levels="255"/>
			<input>
				<port id="0">
					<dim>8</dim>
					<dim>32</dim>
					<dim>1</dim>
					<dim>1</dim>
				</port>
				<port id="1">
					<dim>1</dim>
				</port>
				<port id="2">
					<dim>1</dim>
				</port>
				<port id="3">
					<dim>8</dim>
					<dim>1</dim>
					<dim>1</dim>
					<dim>1</dim>
				</port>
				<port id="4">
					<dim>8</dim>
					<dim>1</dim>
					<dim>1</dim>
					<dim>1</dim>
				</port>
			</input>
			<output>
				<port id="5" precision="FP16">
					<dim>8</dim>
					<dim>32</dim>
					<dim>1</dim>
					<dim>1</dim>
				</port>
			</output>
		</layer>
		<layer id="92" name="bottleneck1_2/dim_red/conv" type="Convolution" version="opset1">
			<data dilations="1,1" output_padding="0,0" pads_begin="0,0" pads_end="0,0" strides="1,1"/>
			<input>
				<port id="0">
					<dim>1</dim>
					<dim>32</dim>
					<dim>200</dim>
					<dim>340</dim>
				</port>
				<port id="1">
					<dim>8</dim>
					<dim>32</dim>
					<dim>1</dim>
					<dim>1</dim>
				</port>
			</input>
			<output>
				<port id="2" precision="FP16">
					<dim>1</dim>
					<dim>8</dim>
					<dim>200</dim>
					<dim>340</dim>
				</port>
			</output>
		</layer>
		<layer id="93" name="data_add_4649646501/copy_const1411_const" type="Const" version="opset1">
			<data element_type="f16" offset="2330" shape="1,8,1,1" size="16"/>
			<output>
				<port id="1" precision="FP16">
					<dim>1</dim>
					<dim>8</dim>
					<dim>1</dim>
					<dim>1</dim>
				</port>
			</output>
		</layer>
		<layer id="94" name="bottleneck1_2/dim_red/bn/variance/Fused_Add_" type="Add" version="opset1">
			<input>
				<port id="0">
					<dim>1</dim>
					<dim>8</dim>
					<dim>200</dim>
					<dim>340</dim>
				</port>
				<port id="1">
					<dim>1</dim>
					<dim>8</dim>
					<dim>1</dim>
					<dim>1</dim>
				</port>
			</input>
			<output>
				<port id="2" precision="FP16">
					<dim>1</dim>
					<dim>8</dim>
					<dim>200</dim>
					<dim>340</dim>
				</port>
			</output>
		</layer>
		<layer id="95" name="bottleneck1_2/dim_red/fn60519/Cast_123403_const" type="Const" version="opset1">
			<data element_type="f32" offset="1386" shape="1" size="4"/>
			<output>
				<port id="1" precision="FP32">
					<dim>1</dim>
				</port>
			</output>
		</layer>
		<layer id="96" name="bottleneck1_2/dim_red/fn60519" type="PReLU" version="opset1">
			<input>
				<port id="0">
					<dim>1</dim>
					<dim>8</dim>
					<dim>200</dim>
					<dim>340</dim>
				</port>
				<port id="1">
					<dim>1</dim>
				</port>
			</input>
			<output>
				<port id="2" precision="FP16">
					<dim>1</dim>
					<dim>8</dim>
					<dim>200</dim>
					<dim>340</dim>
				</port>
			</output>
		</layer>
		<layer id="97" name="48414845_const" type="Const" version="opset1">
			<data element_type="f16" offset="2346" shape="1,8,1,1" size="16"/>
			<output>
				<port id="1" precision="FP16">
					<dim>1</dim>
					<dim>8</dim>
					<dim>1</dim>
					<dim>1</dim>
				</port>
			</output>
		</layer>
		<layer id="98" name="48424846_const" type="Const" version="opset1">
			<data element_type="f16" offset="2362" shape="1,8,1,1" size="16"/>
			<output>
				<port id="1" precision="FP16">
					<dim>1</dim>
					<dim>8</dim>
					<dim>1</dim>
					<dim>1</dim>
				</port>
			</output>
		</layer>
		<layer id="99" name="48434847_const" type="Const" version="opset1">
			<data element_type="f16" offset="2346" shape="1,8,1,1" size="16"/>
			<output>
				<port id="1" precision="FP16">
					<dim>1</dim>
					<dim>8</dim>
					<dim>1</dim>
					<dim>1</dim>
				</port>
			</output>
		</layer>
		<layer id="100" name="48444848_const" type="Const" version="opset1">
			<data element_type="f16" offset="2362" shape="1,8,1,1" size="16"/>
			<output>
				<port id="1" precision="FP16">
					<dim>1</dim>
					<dim>8</dim>
					<dim>1</dim>
					<dim>1</dim>
				</port>
			</output>
		</layer>
		<layer id="101" name="bottleneck1_2/inner/dw1/conv/fq_input_0" type="FakeQuantize" version="opset1">
			<data levels="256"/>
			<input>
				<port id="0">
					<dim>1</dim>
					<dim>8</dim>
					<dim>200</dim>
					<dim>340</dim>
				</port>
				<port id="1">
					<dim>1</dim>
					<dim>8</dim>
					<dim>1</dim>
					<dim>1</dim>
				</port>
				<port id="2">
					<dim>1</dim>
					<dim>8</dim>
					<dim>1</dim>
					<dim>1</dim>
				</port>
				<port id="3">
					<dim>1</dim>
					<dim>8</dim>
					<dim>1</dim>
					<dim>1</dim>
				</port>
				<port id="4">
					<dim>1</dim>
					<dim>8</dim>
					<dim>1</dim>
					<dim>1</dim>
				</port>
			</input>
			<output>
				<port id="5" precision="FP16">
					<dim>1</dim>
					<dim>8</dim>
					<dim>200</dim>
					<dim>340</dim>
				</port>
			</output>
		</layer>
		<layer id="102" name="bottleneck1_2/inner/dw1/conv/fq_weights_1/Convert_to_float/Cast_023255_const" type="Const" version="opset1">
			<data element_type="u8" offset="2378" shape="8,1,3,3" size="72"/>
			<output>
				<port id="1" precision="U8">
					<dim>8</dim>
					<dim>1</dim>
					<dim>3</dim>
					<dim>3</dim>
				</port>
			</output>
		</layer>
		<layer id="103" name="bottleneck1_2/inner/dw1/conv/fq_weights_1/Convert_to_float" type="Convert" version="opset1">
			<data destination_type="f16"/>
			<input>
				<port id="0">
					<dim>8</dim>
					<dim>1</dim>
					<dim>3</dim>
					<dim>3</dim>
				</port>
			</input>
			<output>
				<port id="1" precision="FP16">
					<dim>8</dim>
					<dim>1</dim>
					<dim>3</dim>
					<dim>3</dim>
				</port>
			</output>
		</layer>
		<layer id="104" name="bottleneck1_2/inner/dw1/conv/fq_weights_1/Copy/out_low19041_const" type="Const" version="opset1">
			<data element_type="f16" offset="1336" shape="1" size="2"/>
			<output>
				<port id="1" precision="FP16">
					<dim>1</dim>
				</port>
			</output>
		</layer>
		<layer id="105" name="bottleneck1_2/inner/dw1/conv/fq_weights_1/Copy/out_high19042_const" type="Const" version="opset1">
			<data element_type="f16" offset="882" shape="1" size="2"/>
			<output>
				<port id="1" precision="FP16">
					<dim>1</dim>
				</port>
			</output>
		</layer>
		<layer id="106" name="48534857_const" type="Const" version="opset1">
			<data element_type="f16" offset="2450" shape="8,1,1,1" size="16"/>
			<output>
				<port id="1" precision="FP16">
					<dim>8</dim>
					<dim>1</dim>
					<dim>1</dim>
					<dim>1</dim>
				</port>
			</output>
		</layer>
		<layer id="107" name="48544858_const" type="Const" version="opset1">
			<data element_type="f16" offset="2466" shape="8,1,1,1" size="16"/>
			<output>
				<port id="1" precision="FP16">
					<dim>8</dim>
					<dim>1</dim>
					<dim>1</dim>
					<dim>1</dim>
				</port>
			</output>
		</layer>
		<layer id="108" name="bottleneck1_2/inner/dw1/conv/fq_weights_1" type="FakeQuantize" version="opset1">
			<data levels="255"/>
			<input>
				<port id="0">
					<dim>8</dim>
					<dim>1</dim>
					<dim>3</dim>
					<dim>3</dim>
				</port>
				<port id="1">
					<dim>1</dim>
				</port>
				<port id="2">
					<dim>1</dim>
				</port>
				<port id="3">
					<dim>8</dim>
					<dim>1</dim>
					<dim>1</dim>
					<dim>1</dim>
				</port>
				<port id="4">
					<dim>8</dim>
					<dim>1</dim>
					<dim>1</dim>
					<dim>1</dim>
				</port>
			</input>
			<output>
				<port id="5" precision="FP16">
					<dim>8</dim>
					<dim>1</dim>
					<dim>3</dim>
					<dim>3</dim>
				</port>
			</output>
		</layer>
		<layer id="109" name="26166/value26168_const" type="Const" version="opset1">
			<data element_type="i64" offset="1526" shape="5" size="40"/>
			<output>
				<port id="1" precision="I64">
					<dim>5</dim>
				</port>
			</output>
		</layer>
		<layer id="110" name="26166" type="Reshape" version="opset1">
			<data special_zero="True"/>
			<input>
				<port id="0">
					<dim>8</dim>
					<dim>1</dim>
					<dim>3</dim>
					<dim>3</dim>
				</port>
				<port id="1">
					<dim>5</dim>
				</port>
			</input>
			<output>
				<port id="2" precision="FP16">
					<dim>8</dim>
					<dim>1</dim>
					<dim>1</dim>
					<dim>3</dim>
					<dim>3</dim>
				</port>
			</output>
		</layer>
		<layer id="111" name="bottleneck1_2/inner/dw1/conv" type="GroupConvolution" version="opset1">
			<data dilations="1,1" output_padding="0,0" pads_begin="1,1" pads_end="1,1" strides="1,1"/>
			<input>
				<port id="0">
					<dim>1</dim>
					<dim>8</dim>
					<dim>200</dim>
					<dim>340</dim>
				</port>
				<port id="1">
					<dim>8</dim>
					<dim>1</dim>
					<dim>1</dim>
					<dim>3</dim>
					<dim>3</dim>
				</port>
			</input>
			<output>
				<port id="2" precision="FP16">
					<dim>1</dim>
					<dim>8</dim>
					<dim>200</dim>
					<dim>340</dim>
				</port>
			</output>
		</layer>
		<layer id="112" name="data_add_4650446509/copy_const1417_const" type="Const" version="opset1">
			<data element_type="f16" offset="2482" shape="1,8,1,1" size="16"/>
			<output>
				<port id="1" precision="FP16">
					<dim>1</dim>
					<dim>8</dim>
					<dim>1</dim>
					<dim>1</dim>
				</port>
			</output>
		</layer>
		<layer id="113" name="bottleneck1_2/inner/dw1/bn/variance/Fused_Add_" type="Add" version="opset1">
			<input>
				<port id="0">
					<dim>1</dim>
					<dim>8</dim>
					<dim>200</dim>
					<dim>340</dim>
				</port>
				<port id="1">
					<dim>1</dim>
					<dim>8</dim>
					<dim>1</dim>
					<dim>1</dim>
				</port>
			</input>
			<output>
				<port id="2" precision="FP16">
					<dim>1</dim>
					<dim>8</dim>
					<dim>200</dim>
					<dim>340</dim>
				</port>
			</output>
		</layer>
		<layer id="114" name="bottleneck1_2/inner/dw1/fn60095/Cast_123143_const" type="Const" version="opset1">
			<data element_type="f32" offset="1386" shape="1" size="4"/>
			<output>
				<port id="1" precision="FP32">
					<dim>1</dim>
				</port>
			</output>
		</layer>
		<layer id="115" name="bottleneck1_2/inner/dw1/fn60095" type="PReLU" version="opset1">
			<input>
				<port id="0">
					<dim>1</dim>
					<dim>8</dim>
					<dim>200</dim>
					<dim>340</dim>
				</port>
				<port id="1">
					<dim>1</dim>
				</port>
			</input>
			<output>
				<port id="2" precision="FP16">
					<dim>1</dim>
					<dim>8</dim>
					<dim>200</dim>
					<dim>340</dim>
				</port>
			</output>
		</layer>
		<layer id="116" name="85018505_const" type="Const" version="opset1">
			<data element_type="f16" offset="2498" shape="" size="2"/>
			<output>
				<port id="1" precision="FP16"/>
			</output>
		</layer>
		<layer id="117" name="85028506_const" type="Const" version="opset1">
			<data element_type="f16" offset="2500" shape="" size="2"/>
			<output>
				<port id="1" precision="FP16"/>
			</output>
		</layer>
		<layer id="118" name="85038507_const" type="Const" version="opset1">
			<data element_type="f16" offset="2498" shape="" size="2"/>
			<output>
				<port id="1" precision="FP16"/>
			</output>
		</layer>
		<layer id="119" name="85048508_const" type="Const" version="opset1">
			<data element_type="f16" offset="2500" shape="" size="2"/>
			<output>
				<port id="1" precision="FP16"/>
			</output>
		</layer>
		<layer id="120" name="bottleneck1_2/dim_inc/conv/fq_input_0" type="FakeQuantize" version="opset1">
			<data levels="256"/>
			<input>
				<port id="0">
					<dim>1</dim>
					<dim>8</dim>
					<dim>200</dim>
					<dim>340</dim>
				</port>
				<port id="1"/>
				<port id="2"/>
				<port id="3"/>
				<port id="4"/>
			</input>
			<output>
				<port id="5" precision="FP16">
					<dim>1</dim>
					<dim>8</dim>
					<dim>200</dim>
					<dim>340</dim>
				</port>
			</output>
		</layer>
		<layer id="121" name="bottleneck1_2/dim_inc/conv/fq_weights_1/Convert_to_float/Cast_023221_const" type="Const" version="opset1">
			<data element_type="u8" offset="2502" shape="32,8,1,1" size="256"/>
			<output>
				<port id="1" precision="U8">
					<dim>32</dim>
					<dim>8</dim>
					<dim>1</dim>
					<dim>1</dim>
				</port>
			</output>
		</layer>
		<layer id="122" name="bottleneck1_2/dim_inc/conv/fq_weights_1/Convert_to_float" type="Convert" version="opset1">
			<data destination_type="f16"/>
			<input>
				<port id="0">
					<dim>32</dim>
					<dim>8</dim>
					<dim>1</dim>
					<dim>1</dim>
				</port>
			</input>
			<output>
				<port id="1" precision="FP16">
					<dim>32</dim>
					<dim>8</dim>
					<dim>1</dim>
					<dim>1</dim>
				</port>
			</output>
		</layer>
		<layer id="123" name="bottleneck1_2/dim_inc/conv/fq_weights_1/Copy/out_low18793_const" type="Const" version="opset1">
			<data element_type="f16" offset="1336" shape="1" size="2"/>
			<output>
				<port id="1" precision="FP16">
					<dim>1</dim>
				</port>
			</output>
		</layer>
		<layer id="124" name="bottleneck1_2/dim_inc/conv/fq_weights_1/Copy/out_high18794_const" type="Const" version="opset1">
			<data element_type="f16" offset="882" shape="1" size="2"/>
			<output>
				<port id="1" precision="FP16">
					<dim>1</dim>
				</port>
			</output>
		</layer>
		<layer id="125" name="85138517_const" type="Const" version="opset1">
			<data element_type="f16" offset="2758" shape="32,1,1,1" size="64"/>
			<output>
				<port id="1" precision="FP16">
					<dim>32</dim>
					<dim>1</dim>
					<dim>1</dim>
					<dim>1</dim>
				</port>
			</output>
		</layer>
		<layer id="126" name="85148518_const" type="Const" version="opset1">
			<data element_type="f16" offset="2822" shape="32,1,1,1" size="64"/>
			<output>
				<port id="1" precision="FP16">
					<dim>32</dim>
					<dim>1</dim>
					<dim>1</dim>
					<dim>1</dim>
				</port>
			</output>
		</layer>
		<layer id="127" name="bottleneck1_2/dim_inc/conv/fq_weights_1" type="FakeQuantize" version="opset1">
			<data levels="255"/>
			<input>
				<port id="0">
					<dim>32</dim>
					<dim>8</dim>
					<dim>1</dim>
					<dim>1</dim>
				</port>
				<port id="1">
					<dim>1</dim>
				</port>
				<port id="2">
					<dim>1</dim>
				</port>
				<port id="3">
					<dim>32</dim>
					<dim>1</dim>
					<dim>1</dim>
					<dim>1</dim>
				</port>
				<port id="4">
					<dim>32</dim>
					<dim>1</dim>
					<dim>1</dim>
					<dim>1</dim>
				</port>
			</input>
			<output>
				<port id="5" precision="FP16">
					<dim>32</dim>
					<dim>8</dim>
					<dim>1</dim>
					<dim>1</dim>
				</port>
			</output>
		</layer>
		<layer id="128" name="bottleneck1_2/dim_inc/conv" type="Convolution" version="opset1">
			<data dilations="1,1" output_padding="0,0" pads_begin="0,0" pads_end="0,0" strides="1,1"/>
			<input>
				<port id="0">
					<dim>1</dim>
					<dim>8</dim>
					<dim>200</dim>
					<dim>340</dim>
				</port>
				<port id="1">
					<dim>32</dim>
					<dim>8</dim>
					<dim>1</dim>
					<dim>1</dim>
				</port>
			</input>
			<output>
				<port id="2" precision="FP16">
					<dim>1</dim>
					<dim>32</dim>
					<dim>200</dim>
					<dim>340</dim>
				</port>
			</output>
		</layer>
		<layer id="129" name="data_add_4651246517/copy_const1423_const" type="Const" version="opset1">
			<data element_type="f16" offset="2886" shape="1,32,1,1" size="64"/>
			<output>
				<port id="1" precision="FP16">
					<dim>1</dim>
					<dim>32</dim>
					<dim>1</dim>
					<dim>1</dim>
				</port>
			</output>
		</layer>
		<layer id="130" name="bottleneck1_2/dim_inc/bn/variance/Fused_Add_" type="Add" version="opset1">
			<input>
				<port id="0">
					<dim>1</dim>
					<dim>32</dim>
					<dim>200</dim>
					<dim>340</dim>
				</port>
				<port id="1">
					<dim>1</dim>
					<dim>32</dim>
					<dim>1</dim>
					<dim>1</dim>
				</port>
			</input>
			<output>
				<port id="2" precision="FP16">
					<dim>1</dim>
					<dim>32</dim>
					<dim>200</dim>
					<dim>340</dim>
				</port>
			</output>
		</layer>
		<layer id="131" name="79717975_const" type="Const" version="opset1">
			<data element_type="f16" offset="2950" shape="" size="2"/>
			<output>
				<port id="1" precision="FP16"/>
			</output>
		</layer>
		<layer id="132" name="79727976_const" type="Const" version="opset1">
			<data element_type="f16" offset="2952" shape="" size="2"/>
			<output>
				<port id="1" precision="FP16"/>
			</output>
		</layer>
		<layer id="133" name="79737977_const" type="Const" version="opset1">
			<data element_type="f16" offset="2950" shape="" size="2"/>
			<output>
				<port id="1" precision="FP16"/>
			</output>
		</layer>
		<layer id="134" name="79747978_const" type="Const" version="opset1">
			<data element_type="f16" offset="2952" shape="" size="2"/>
			<output>
				<port id="1" precision="FP16"/>
			</output>
		</layer>
		<layer id="135" name="bottleneck1_2/add/fq_input_1" type="FakeQuantize" version="opset1">
			<data levels="256"/>
			<input>
				<port id="0">
					<dim>1</dim>
					<dim>32</dim>
					<dim>200</dim>
					<dim>340</dim>
				</port>
				<port id="1"/>
				<port id="2"/>
				<port id="3"/>
				<port id="4"/>
			</input>
			<output>
				<port id="5" precision="FP16">
					<dim>1</dim>
					<dim>32</dim>
					<dim>200</dim>
					<dim>340</dim>
				</port>
			</output>
		</layer>
		<layer id="136" name="bottleneck1_2/add" type="Add" version="opset1">
			<input>
				<port id="0">
					<dim>1</dim>
					<dim>32</dim>
					<dim>200</dim>
					<dim>340</dim>
				</port>
				<port id="1">
					<dim>1</dim>
					<dim>32</dim>
					<dim>200</dim>
					<dim>340</dim>
				</port>
			</input>
			<output>
				<port id="2" precision="FP16">
					<dim>1</dim>
					<dim>32</dim>
					<dim>200</dim>
					<dim>340</dim>
				</port>
			</output>
		</layer>
		<layer id="137" name="bottleneck1_2/fn60403/Cast_123279_const" type="Const" version="opset1">
			<data element_type="f32" offset="1386" shape="1" size="4"/>
			<output>
				<port id="1" precision="FP32">
					<dim>1</dim>
				</port>
			</output>
		</layer>
		<layer id="138" name="bottleneck1_2/fn60403" type="PReLU" version="opset1">
			<input>
				<port id="0">
					<dim>1</dim>
					<dim>32</dim>
					<dim>200</dim>
					<dim>340</dim>
				</port>
				<port id="1">
					<dim>1</dim>
				</port>
			</input>
			<output>
				<port id="2" precision="FP16">
					<dim>1</dim>
					<dim>32</dim>
					<dim>200</dim>
					<dim>340</dim>
				</port>
			</output>
		</layer>
		<layer id="139" name="68216825_const" type="Const" version="opset1">
			<data element_type="f16" offset="2954" shape="" size="2"/>
			<output>
				<port id="1" precision="FP16"/>
			</output>
		</layer>
		<layer id="140" name="68226826_const" type="Const" version="opset1">
			<data element_type="f16" offset="2956" shape="" size="2"/>
			<output>
				<port id="1" precision="FP16"/>
			</output>
		</layer>
		<layer id="141" name="68236827_const" type="Const" version="opset1">
			<data element_type="f16" offset="2954" shape="" size="2"/>
			<output>
				<port id="1" precision="FP16"/>
			</output>
		</layer>
		<layer id="142" name="68246828_const" type="Const" version="opset1">
			<data element_type="f16" offset="2956" shape="" size="2"/>
			<output>
				<port id="1" precision="FP16"/>
			</output>
		</layer>
		<layer id="143" name="bottleneck1_3/add/fq_input_0" type="FakeQuantize" version="opset1">
			<data levels="256"/>
			<input>
				<port id="0">
					<dim>1</dim>
					<dim>32</dim>
					<dim>200</dim>
					<dim>340</dim>
				</port>
				<port id="1"/>
				<port id="2"/>
				<port id="3"/>
				<port id="4"/>
			</input>
			<output>
				<port id="5" precision="FP16">
					<dim>1</dim>
					<dim>32</dim>
					<dim>200</dim>
					<dim>340</dim>
				</port>
			</output>
		</layer>
		<layer id="144" name="bottleneck1_3/dim_red/conv/fq_weights_1/Convert_to_float/Cast_023453_const" type="Const" version="opset1">
			<data element_type="u8" offset="2958" shape="8,32,1,1" size="256"/>
			<output>
				<port id="1" precision="U8">
					<dim>8</dim>
					<dim>32</dim>
					<dim>1</dim>
					<dim>1</dim>
				</port>
			</output>
		</layer>
		<layer id="145" name="bottleneck1_3/dim_red/conv/fq_weights_1/Convert_to_float" type="Convert" version="opset1">
			<data destination_type="f16"/>
			<input>
				<port id="0">
					<dim>8</dim>
					<dim>32</dim>
					<dim>1</dim>
					<dim>1</dim>
				</port>
			</input>
			<output>
				<port id="1" precision="FP16">
					<dim>8</dim>
					<dim>32</dim>
					<dim>1</dim>
					<dim>1</dim>
				</port>
			</output>
		</layer>
		<layer id="146" name="bottleneck1_3/dim_red/conv/fq_weights_1/Copy/out_low18649_const" type="Const" version="opset1">
			<data element_type="f16" offset="1336" shape="1" size="2"/>
			<output>
				<port id="1" precision="FP16">
					<dim>1</dim>
				</port>
			</output>
		</layer>
		<layer id="147" name="bottleneck1_3/dim_red/conv/fq_weights_1/Copy/out_high18650_const" type="Const" version="opset1">
			<data element_type="f16" offset="882" shape="1" size="2"/>
			<output>
				<port id="1" precision="FP16">
					<dim>1</dim>
				</port>
			</output>
		</layer>
		<layer id="148" name="97139717_const" type="Const" version="opset1">
			<data element_type="f16" offset="3214" shape="8,1,1,1" size="16"/>
			<output>
				<port id="1" precision="FP16">
					<dim>8</dim>
					<dim>1</dim>
					<dim>1</dim>
					<dim>1</dim>
				</port>
			</output>
		</layer>
		<layer id="149" name="97149718_const" type="Const" version="opset1">
			<data element_type="f16" offset="3230" shape="8,1,1,1" size="16"/>
			<output>
				<port id="1" precision="FP16">
					<dim>8</dim>
					<dim>1</dim>
					<dim>1</dim>
					<dim>1</dim>
				</port>
			</output>
		</layer>
		<layer id="150" name="bottleneck1_3/dim_red/conv/fq_weights_1" type="FakeQuantize" version="opset1">
			<data levels="255"/>
			<input>
				<port id="0">
					<dim>8</dim>
					<dim>32</dim>
					<dim>1</dim>
					<dim>1</dim>
				</port>
				<port id="1">
					<dim>1</dim>
				</port>
				<port id="2">
					<dim>1</dim>
				</port>
				<port id="3">
					<dim>8</dim>
					<dim>1</dim>
					<dim>1</dim>
					<dim>1</dim>
				</port>
				<port id="4">
					<dim>8</dim>
					<dim>1</dim>
					<dim>1</dim>
					<dim>1</dim>
				</port>
			</input>
			<output>
				<port id="5" precision="FP16">
					<dim>8</dim>
					<dim>32</dim>
					<dim>1</dim>
					<dim>1</dim>
				</port>
			</output>
		</layer>
		<layer id="151" name="bottleneck1_3/dim_red/conv" type="Convolution" version="opset1">
			<data dilations="1,1" output_padding="0,0" pads_begin="0,0" pads_end="0,0" strides="1,1"/>
			<input>
				<port id="0">
					<dim>1</dim>
					<dim>32</dim>
					<dim>200</dim>
					<dim>340</dim>
				</port>
				<port id="1">
					<dim>8</dim>
					<dim>32</dim>
					<dim>1</dim>
					<dim>1</dim>
				</port>
			</input>
			<output>
				<port id="2" precision="FP16">
					<dim>1</dim>
					<dim>8</dim>
					<dim>200</dim>
					<dim>340</dim>
				</port>
			</output>
		</layer>
		<layer id="152" name="data_add_4652046525/copy_const1430_const" type="Const" version="opset1">
			<data element_type="f16" offset="3246" shape="1,8,1,1" size="16"/>
			<output>
				<port id="1" precision="FP16">
					<dim>1</dim>
					<dim>8</dim>
					<dim>1</dim>
					<dim>1</dim>
				</port>
			</output>
		</layer>
		<layer id="153" name="bottleneck1_3/dim_red/bn/variance/Fused_Add_" type="Add" version="opset1">
			<input>
				<port id="0">
					<dim>1</dim>
					<dim>8</dim>
					<dim>200</dim>
					<dim>340</dim>
				</port>
				<port id="1">
					<dim>1</dim>
					<dim>8</dim>
					<dim>1</dim>
					<dim>1</dim>
				</port>
			</input>
			<output>
				<port id="2" precision="FP16">
					<dim>1</dim>
					<dim>8</dim>
					<dim>200</dim>
					<dim>340</dim>
				</port>
			</output>
		</layer>
		<layer id="154" name="bottleneck1_3/dim_red/fn60047/Cast_122981_const" type="Const" version="opset1">
			<data element_type="f32" offset="1386" shape="1" size="4"/>
			<output>
				<port id="1" precision="FP32">
					<dim>1</dim>
				</port>
			</output>
		</layer>
		<layer id="155" name="bottleneck1_3/dim_red/fn60047" type="PReLU" version="opset1">
			<input>
				<port id="0">
					<dim>1</dim>
					<dim>8</dim>
					<dim>200</dim>
					<dim>340</dim>
				</port>
				<port id="1">
					<dim>1</dim>
				</port>
			</input>
			<output>
				<port id="2" precision="FP16">
					<dim>1</dim>
					<dim>8</dim>
					<dim>200</dim>
					<dim>340</dim>
				</port>
			</output>
		</layer>
		<layer id="156" name="87418745_const" type="Const" version="opset1">
			<data element_type="f16" offset="3262" shape="1,8,1,1" size="16"/>
			<output>
				<port id="1" precision="FP16">
					<dim>1</dim>
					<dim>8</dim>
					<dim>1</dim>
					<dim>1</dim>
				</port>
			</output>
		</layer>
		<layer id="157" name="87428746_const" type="Const" version="opset1">
			<data element_type="f16" offset="3278" shape="1,8,1,1" size="16"/>
			<output>
				<port id="1" precision="FP16">
					<dim>1</dim>
					<dim>8</dim>
					<dim>1</dim>
					<dim>1</dim>
				</port>
			</output>
		</layer>
		<layer id="158" name="87438747_const" type="Const" version="opset1">
			<data element_type="f16" offset="3262" shape="1,8,1,1" size="16"/>
			<output>
				<port id="1" precision="FP16">
					<dim>1</dim>
					<dim>8</dim>
					<dim>1</dim>
					<dim>1</dim>
				</port>
			</output>
		</layer>
		<layer id="159" name="87448748_const" type="Const" version="opset1">
			<data element_type="f16" offset="3278" shape="1,8,1,1" size="16"/>
			<output>
				<port id="1" precision="FP16">
					<dim>1</dim>
					<dim>8</dim>
					<dim>1</dim>
					<dim>1</dim>
				</port>
			</output>
		</layer>
		<layer id="160" name="bottleneck1_3/inner/dw1/conv/fq_input_0" type="FakeQuantize" version="opset1">
			<data levels="256"/>
			<input>
				<port id="0">
					<dim>1</dim>
					<dim>8</dim>
					<dim>200</dim>
					<dim>340</dim>
				</port>
				<port id="1">
					<dim>1</dim>
					<dim>8</dim>
					<dim>1</dim>
					<dim>1</dim>
				</port>
				<port id="2">
					<dim>1</dim>
					<dim>8</dim>
					<dim>1</dim>
					<dim>1</dim>
				</port>
				<port id="3">
					<dim>1</dim>
					<dim>8</dim>
					<dim>1</dim>
					<dim>1</dim>
				</port>
				<port id="4">
					<dim>1</dim>
					<dim>8</dim>
					<dim>1</dim>
					<dim>1</dim>
				</port>
			</input>
			<output>
				<port id="5" precision="FP16">
					<dim>1</dim>
					<dim>8</dim>
					<dim>200</dim>
					<dim>340</dim>
				</port>
			</output>
		</layer>
		<layer id="161" name="bottleneck1_3/inner/dw1/conv/fq_weights_1/Convert_to_float/Cast_023319_const" type="Const" version="opset1">
			<data element_type="u8" offset="3294" shape="8,1,3,3" size="72"/>
			<output>
				<port id="1" precision="U8">
					<dim>8</dim>
					<dim>1</dim>
					<dim>3</dim>
					<dim>3</dim>
				</port>
			</output>
		</layer>
		<layer id="162" name="bottleneck1_3/inner/dw1/conv/fq_weights_1/Convert_to_float" type="Convert" version="opset1">
			<data destination_type="f16"/>
			<input>
				<port id="0">
					<dim>8</dim>
					<dim>1</dim>
					<dim>3</dim>
					<dim>3</dim>
				</port>
			</input>
			<output>
				<port id="1" precision="FP16">
					<dim>8</dim>
					<dim>1</dim>
					<dim>3</dim>
					<dim>3</dim>
				</port>
			</output>
		</layer>
		<layer id="163" name="bottleneck1_3/inner/dw1/conv/fq_weights_1/Copy/out_low19025_const" type="Const" version="opset1">
			<data element_type="f16" offset="1336" shape="1" size="2"/>
			<output>
				<port id="1" precision="FP16">
					<dim>1</dim>
				</port>
			</output>
		</layer>
		<layer id="164" name="bottleneck1_3/inner/dw1/conv/fq_weights_1/Copy/out_high19026_const" type="Const" version="opset1">
			<data element_type="f16" offset="882" shape="1" size="2"/>
			<output>
				<port id="1" precision="FP16">
					<dim>1</dim>
				</port>
			</output>
		</layer>
		<layer id="165" name="87538757_const" type="Const" version="opset1">
			<data element_type="f16" offset="3366" shape="8,1,1,1" size="16"/>
			<output>
				<port id="1" precision="FP16">
					<dim>8</dim>
					<dim>1</dim>
					<dim>1</dim>
					<dim>1</dim>
				</port>
			</output>
		</layer>
		<layer id="166" name="87548758_const" type="Const" version="opset1">
			<data element_type="f16" offset="3382" shape="8,1,1,1" size="16"/>
			<output>
				<port id="1" precision="FP16">
					<dim>8</dim>
					<dim>1</dim>
					<dim>1</dim>
					<dim>1</dim>
				</port>
			</output>
		</layer>
		<layer id="167" name="bottleneck1_3/inner/dw1/conv/fq_weights_1" type="FakeQuantize" version="opset1">
			<data levels="255"/>
			<input>
				<port id="0">
					<dim>8</dim>
					<dim>1</dim>
					<dim>3</dim>
					<dim>3</dim>
				</port>
				<port id="1">
					<dim>1</dim>
				</port>
				<port id="2">
					<dim>1</dim>
				</port>
				<port id="3">
					<dim>8</dim>
					<dim>1</dim>
					<dim>1</dim>
					<dim>1</dim>
				</port>
				<port id="4">
					<dim>8</dim>
					<dim>1</dim>
					<dim>1</dim>
					<dim>1</dim>
				</port>
			</input>
			<output>
				<port id="5" precision="FP16">
					<dim>8</dim>
					<dim>1</dim>
					<dim>3</dim>
					<dim>3</dim>
				</port>
			</output>
		</layer>
		<layer id="168" name="26390/value26392_const" type="Const" version="opset1">
			<data element_type="i64" offset="1526" shape="5" size="40"/>
			<output>
				<port id="1" precision="I64">
					<dim>5</dim>
				</port>
			</output>
		</layer>
		<layer id="169" name="26390" type="Reshape" version="opset1">
			<data special_zero="True"/>
			<input>
				<port id="0">
					<dim>8</dim>
					<dim>1</dim>
					<dim>3</dim>
					<dim>3</dim>
				</port>
				<port id="1">
					<dim>5</dim>
				</port>
			</input>
			<output>
				<port id="2" precision="FP16">
					<dim>8</dim>
					<dim>1</dim>
					<dim>1</dim>
					<dim>3</dim>
					<dim>3</dim>
				</port>
			</output>
		</layer>
		<layer id="170" name="bottleneck1_3/inner/dw1/conv" type="GroupConvolution" version="opset1">
			<data dilations="1,1" output_padding="0,0" pads_begin="1,1" pads_end="1,1" strides="1,1"/>
			<input>
				<port id="0">
					<dim>1</dim>
					<dim>8</dim>
					<dim>200</dim>
					<dim>340</dim>
				</port>
				<port id="1">
					<dim>8</dim>
					<dim>1</dim>
					<dim>1</dim>
					<dim>3</dim>
					<dim>3</dim>
				</port>
			</input>
			<output>
				<port id="2" precision="FP16">
					<dim>1</dim>
					<dim>8</dim>
					<dim>200</dim>
					<dim>340</dim>
				</port>
			</output>
		</layer>
		<layer id="171" name="data_add_4652846533/copy_const1436_const" type="Const" version="opset1">
			<data element_type="f16" offset="3398" shape="1,8,1,1" size="16"/>
			<output>
				<port id="1" precision="FP16">
					<dim>1</dim>
					<dim>8</dim>
					<dim>1</dim>
					<dim>1</dim>
				</port>
			</output>
		</layer>
		<layer id="172" name="bottleneck1_3/inner/dw1/bn/variance/Fused_Add_" type="Add" version="opset1">
			<input>
				<port id="0">
					<dim>1</dim>
					<dim>8</dim>
					<dim>200</dim>
					<dim>340</dim>
				</port>
				<port id="1">
					<dim>1</dim>
					<dim>8</dim>
					<dim>1</dim>
					<dim>1</dim>
				</port>
			</input>
			<output>
				<port id="2" precision="FP16">
					<dim>1</dim>
					<dim>8</dim>
					<dim>200</dim>
					<dim>340</dim>
				</port>
			</output>
		</layer>
		<layer id="173" name="bottleneck1_3/inner/dw1/fn60459/Cast_123121_const" type="Const" version="opset1">
			<data element_type="f32" offset="1386" shape="1" size="4"/>
			<output>
				<port id="1" precision="FP32">
					<dim>1</dim>
				</port>
			</output>
		</layer>
		<layer id="174" name="bottleneck1_3/inner/dw1/fn60459" type="PReLU" version="opset1">
			<input>
				<port id="0">
					<dim>1</dim>
					<dim>8</dim>
					<dim>200</dim>
					<dim>340</dim>
				</port>
				<port id="1">
					<dim>1</dim>
				</port>
			</input>
			<output>
				<port id="2" precision="FP16">
					<dim>1</dim>
					<dim>8</dim>
					<dim>200</dim>
					<dim>340</dim>
				</port>
			</output>
		</layer>
		<layer id="175" name="84618465_const" type="Const" version="opset1">
			<data element_type="f16" offset="3414" shape="" size="2"/>
			<output>
				<port id="1" precision="FP16"/>
			</output>
		</layer>
		<layer id="176" name="84628466_const" type="Const" version="opset1">
			<data element_type="f16" offset="3416" shape="" size="2"/>
			<output>
				<port id="1" precision="FP16"/>
			</output>
		</layer>
		<layer id="177" name="84638467_const" type="Const" version="opset1">
			<data element_type="f16" offset="3414" shape="" size="2"/>
			<output>
				<port id="1" precision="FP16"/>
			</output>
		</layer>
		<layer id="178" name="84648468_const" type="Const" version="opset1">
			<data element_type="f16" offset="3416" shape="" size="2"/>
			<output>
				<port id="1" precision="FP16"/>
			</output>
		</layer>
		<layer id="179" name="bottleneck1_3/dim_inc/conv/fq_input_0" type="FakeQuantize" version="opset1">
			<data levels="256"/>
			<input>
				<port id="0">
					<dim>1</dim>
					<dim>8</dim>
					<dim>200</dim>
					<dim>340</dim>
				</port>
				<port id="1"/>
				<port id="2"/>
				<port id="3"/>
				<port id="4"/>
			</input>
			<output>
				<port id="5" precision="FP16">
					<dim>1</dim>
					<dim>8</dim>
					<dim>200</dim>
					<dim>340</dim>
				</port>
			</output>
		</layer>
		<layer id="180" name="bottleneck1_3/dim_inc/conv/fq_weights_1/Convert_to_float/Cast_023155_const" type="Const" version="opset1">
			<data element_type="u8" offset="3418" shape="32,8,1,1" size="256"/>
			<output>
				<port id="1" precision="U8">
					<dim>32</dim>
					<dim>8</dim>
					<dim>1</dim>
					<dim>1</dim>
				</port>
			</output>
		</layer>
		<layer id="181" name="bottleneck1_3/dim_inc/conv/fq_weights_1/Convert_to_float" type="Convert" version="opset1">
			<data destination_type="f16"/>
			<input>
				<port id="0">
					<dim>32</dim>
					<dim>8</dim>
					<dim>1</dim>
					<dim>1</dim>
				</port>
			</input>
			<output>
				<port id="1" precision="FP16">
					<dim>32</dim>
					<dim>8</dim>
					<dim>1</dim>
					<dim>1</dim>
				</port>
			</output>
		</layer>
		<layer id="182" name="bottleneck1_3/dim_inc/conv/fq_weights_1/Copy/out_low19937_const" type="Const" version="opset1">
			<data element_type="f16" offset="1336" shape="1" size="2"/>
			<output>
				<port id="1" precision="FP16">
					<dim>1</dim>
				</port>
			</output>
		</layer>
		<layer id="183" name="bottleneck1_3/dim_inc/conv/fq_weights_1/Copy/out_high19938_const" type="Const" version="opset1">
			<data element_type="f16" offset="882" shape="1" size="2"/>
			<output>
				<port id="1" precision="FP16">
					<dim>1</dim>
				</port>
			</output>
		</layer>
		<layer id="184" name="84738477_const" type="Const" version="opset1">
			<data element_type="f16" offset="3674" shape="32,1,1,1" size="64"/>
			<output>
				<port id="1" precision="FP16">
					<dim>32</dim>
					<dim>1</dim>
					<dim>1</dim>
					<dim>1</dim>
				</port>
			</output>
		</layer>
		<layer id="185" name="84748478_const" type="Const" version="opset1">
			<data element_type="f16" offset="3738" shape="32,1,1,1" size="64"/>
			<output>
				<port id="1" precision="FP16">
					<dim>32</dim>
					<dim>1</dim>
					<dim>1</dim>
					<dim>1</dim>
				</port>
			</output>
		</layer>
		<layer id="186" name="bottleneck1_3/dim_inc/conv/fq_weights_1" type="FakeQuantize" version="opset1">
			<data levels="255"/>
			<input>
				<port id="0">
					<dim>32</dim>
					<dim>8</dim>
					<dim>1</dim>
					<dim>1</dim>
				</port>
				<port id="1">
					<dim>1</dim>
				</port>
				<port id="2">
					<dim>1</dim>
				</port>
				<port id="3">
					<dim>32</dim>
					<dim>1</dim>
					<dim>1</dim>
					<dim>1</dim>
				</port>
				<port id="4">
					<dim>32</dim>
					<dim>1</dim>
					<dim>1</dim>
					<dim>1</dim>
				</port>
			</input>
			<output>
				<port id="5" precision="FP16">
					<dim>32</dim>
					<dim>8</dim>
					<dim>1</dim>
					<dim>1</dim>
				</port>
			</output>
		</layer>
		<layer id="187" name="bottleneck1_3/dim_inc/conv" type="Convolution" version="opset1">
			<data dilations="1,1" output_padding="0,0" pads_begin="0,0" pads_end="0,0" strides="1,1"/>
			<input>
				<port id="0">
					<dim>1</dim>
					<dim>8</dim>
					<dim>200</dim>
					<dim>340</dim>
				</port>
				<port id="1">
					<dim>32</dim>
					<dim>8</dim>
					<dim>1</dim>
					<dim>1</dim>
				</port>
			</input>
			<output>
				<port id="2" precision="FP16">
					<dim>1</dim>
					<dim>32</dim>
					<dim>200</dim>
					<dim>340</dim>
				</port>
			</output>
		</layer>
		<layer id="188" name="data_add_4653646541/copy_const1442_const" type="Const" version="opset1">
			<data element_type="f16" offset="3802" shape="1,32,1,1" size="64"/>
			<output>
				<port id="1" precision="FP16">
					<dim>1</dim>
					<dim>32</dim>
					<dim>1</dim>
					<dim>1</dim>
				</port>
			</output>
		</layer>
		<layer id="189" name="bottleneck1_3/dim_inc/bn/variance/Fused_Add_" type="Add" version="opset1">
			<input>
				<port id="0">
					<dim>1</dim>
					<dim>32</dim>
					<dim>200</dim>
					<dim>340</dim>
				</port>
				<port id="1">
					<dim>1</dim>
					<dim>32</dim>
					<dim>1</dim>
					<dim>1</dim>
				</port>
			</input>
			<output>
				<port id="2" precision="FP16">
					<dim>1</dim>
					<dim>32</dim>
					<dim>200</dim>
					<dim>340</dim>
				</port>
			</output>
		</layer>
		<layer id="190" name="68316835_const" type="Const" version="opset1">
			<data element_type="f16" offset="3866" shape="" size="2"/>
			<output>
				<port id="1" precision="FP16"/>
			</output>
		</layer>
		<layer id="191" name="68326836_const" type="Const" version="opset1">
			<data element_type="f16" offset="3868" shape="" size="2"/>
			<output>
				<port id="1" precision="FP16"/>
			</output>
		</layer>
		<layer id="192" name="68336837_const" type="Const" version="opset1">
			<data element_type="f16" offset="3866" shape="" size="2"/>
			<output>
				<port id="1" precision="FP16"/>
			</output>
		</layer>
		<layer id="193" name="68346838_const" type="Const" version="opset1">
			<data element_type="f16" offset="3868" shape="" size="2"/>
			<output>
				<port id="1" precision="FP16"/>
			</output>
		</layer>
		<layer id="194" name="bottleneck1_3/add/fq_input_1" type="FakeQuantize" version="opset1">
			<data levels="256"/>
			<input>
				<port id="0">
					<dim>1</dim>
					<dim>32</dim>
					<dim>200</dim>
					<dim>340</dim>
				</port>
				<port id="1"/>
				<port id="2"/>
				<port id="3"/>
				<port id="4"/>
			</input>
			<output>
				<port id="5" precision="FP16">
					<dim>1</dim>
					<dim>32</dim>
					<dim>200</dim>
					<dim>340</dim>
				</port>
			</output>
		</layer>
		<layer id="195" name="bottleneck1_3/add" type="Add" version="opset1">
			<input>
				<port id="0">
					<dim>1</dim>
					<dim>32</dim>
					<dim>200</dim>
					<dim>340</dim>
				</port>
				<port id="1">
					<dim>1</dim>
					<dim>32</dim>
					<dim>200</dim>
					<dim>340</dim>
				</port>
			</input>
			<output>
				<port id="2" precision="FP16">
					<dim>1</dim>
					<dim>32</dim>
					<dim>200</dim>
					<dim>340</dim>
				</port>
			</output>
		</layer>
		<layer id="196" name="bottleneck1_3/fn60015/Cast_122895_const" type="Const" version="opset1">
			<data element_type="f32" offset="1386" shape="1" size="4"/>
			<output>
				<port id="1" precision="FP32">
					<dim>1</dim>
				</port>
			</output>
		</layer>
		<layer id="197" name="bottleneck1_3/fn60015" type="PReLU" version="opset1">
			<input>
				<port id="0">
					<dim>1</dim>
					<dim>32</dim>
					<dim>200</dim>
					<dim>340</dim>
				</port>
				<port id="1">
					<dim>1</dim>
				</port>
			</input>
			<output>
				<port id="2" precision="FP16">
					<dim>1</dim>
					<dim>32</dim>
					<dim>200</dim>
					<dim>340</dim>
				</port>
			</output>
		</layer>
		<layer id="198" name="73617365_const" type="Const" version="opset1">
			<data element_type="f16" offset="3870" shape="" size="2"/>
			<output>
				<port id="1" precision="FP16"/>
			</output>
		</layer>
		<layer id="199" name="73627366_const" type="Const" version="opset1">
			<data element_type="f16" offset="3872" shape="" size="2"/>
			<output>
				<port id="1" precision="FP16"/>
			</output>
		</layer>
		<layer id="200" name="73637367_const" type="Const" version="opset1">
			<data element_type="f16" offset="3870" shape="" size="2"/>
			<output>
				<port id="1" precision="FP16"/>
			</output>
		</layer>
		<layer id="201" name="73647368_const" type="Const" version="opset1">
			<data element_type="f16" offset="3872" shape="" size="2"/>
			<output>
				<port id="1" precision="FP16"/>
			</output>
		</layer>
		<layer id="202" name="bottleneck1_4/add/fq_input_0" type="FakeQuantize" version="opset1">
			<data levels="256"/>
			<input>
				<port id="0">
					<dim>1</dim>
					<dim>32</dim>
					<dim>200</dim>
					<dim>340</dim>
				</port>
				<port id="1"/>
				<port id="2"/>
				<port id="3"/>
				<port id="4"/>
			</input>
			<output>
				<port id="5" precision="FP16">
					<dim>1</dim>
					<dim>32</dim>
					<dim>200</dim>
					<dim>340</dim>
				</port>
			</output>
		</layer>
		<layer id="203" name="bottleneck1_4/dim_red/conv/fq_weights_1/Convert_to_float/Cast_023103_const" type="Const" version="opset1">
			<data element_type="u8" offset="3874" shape="8,32,1,1" size="256"/>
			<output>
				<port id="1" precision="U8">
					<dim>8</dim>
					<dim>32</dim>
					<dim>1</dim>
					<dim>1</dim>
				</port>
			</output>
		</layer>
		<layer id="204" name="bottleneck1_4/dim_red/conv/fq_weights_1/Convert_to_float" type="Convert" version="opset1">
			<data destination_type="f16"/>
			<input>
				<port id="0">
					<dim>8</dim>
					<dim>32</dim>
					<dim>1</dim>
					<dim>1</dim>
				</port>
			</input>
			<output>
				<port id="1" precision="FP16">
					<dim>8</dim>
					<dim>32</dim>
					<dim>1</dim>
					<dim>1</dim>
				</port>
			</output>
		</layer>
		<layer id="205" name="bottleneck1_4/dim_red/conv/fq_weights_1/Copy/out_low19409_const" type="Const" version="opset1">
			<data element_type="f16" offset="1336" shape="1" size="2"/>
			<output>
				<port id="1" precision="FP16">
					<dim>1</dim>
				</port>
			</output>
		</layer>
		<layer id="206" name="bottleneck1_4/dim_red/conv/fq_weights_1/Copy/out_high19410_const" type="Const" version="opset1">
			<data element_type="f16" offset="882" shape="1" size="2"/>
			<output>
				<port id="1" precision="FP16">
					<dim>1</dim>
				</port>
			</output>
		</layer>
		<layer id="207" name="88138817_const" type="Const" version="opset1">
			<data element_type="f16" offset="4130" shape="8,1,1,1" size="16"/>
			<output>
				<port id="1" precision="FP16">
					<dim>8</dim>
					<dim>1</dim>
					<dim>1</dim>
					<dim>1</dim>
				</port>
			</output>
		</layer>
		<layer id="208" name="88148818_const" type="Const" version="opset1">
			<data element_type="f16" offset="4146" shape="8,1,1,1" size="16"/>
			<output>
				<port id="1" precision="FP16">
					<dim>8</dim>
					<dim>1</dim>
					<dim>1</dim>
					<dim>1</dim>
				</port>
			</output>
		</layer>
		<layer id="209" name="bottleneck1_4/dim_red/conv/fq_weights_1" type="FakeQuantize" version="opset1">
			<data levels="255"/>
			<input>
				<port id="0">
					<dim>8</dim>
					<dim>32</dim>
					<dim>1</dim>
					<dim>1</dim>
				</port>
				<port id="1">
					<dim>1</dim>
				</port>
				<port id="2">
					<dim>1</dim>
				</port>
				<port id="3">
					<dim>8</dim>
					<dim>1</dim>
					<dim>1</dim>
					<dim>1</dim>
				</port>
				<port id="4">
					<dim>8</dim>
					<dim>1</dim>
					<dim>1</dim>
					<dim>1</dim>
				</port>
			</input>
			<output>
				<port id="5" precision="FP16">
					<dim>8</dim>
					<dim>32</dim>
					<dim>1</dim>
					<dim>1</dim>
				</port>
			</output>
		</layer>
		<layer id="210" name="bottleneck1_4/dim_red/conv" type="Convolution" version="opset1">
			<data dilations="1,1" output_padding="0,0" pads_begin="0,0" pads_end="0,0" strides="1,1"/>
			<input>
				<port id="0">
					<dim>1</dim>
					<dim>32</dim>
					<dim>200</dim>
					<dim>340</dim>
				</port>
				<port id="1">
					<dim>8</dim>
					<dim>32</dim>
					<dim>1</dim>
					<dim>1</dim>
				</port>
			</input>
			<output>
				<port id="2" precision="FP16">
					<dim>1</dim>
					<dim>8</dim>
					<dim>200</dim>
					<dim>340</dim>
				</port>
			</output>
		</layer>
		<layer id="211" name="data_add_4654446549/copy_const1449_const" type="Const" version="opset1">
			<data element_type="f16" offset="4162" shape="1,8,1,1" size="16"/>
			<output>
				<port id="1" precision="FP16">
					<dim>1</dim>
					<dim>8</dim>
					<dim>1</dim>
					<dim>1</dim>
				</port>
			</output>
		</layer>
		<layer id="212" name="bottleneck1_4/dim_red/bn/variance/Fused_Add_" type="Add" version="opset1">
			<input>
				<port id="0">
					<dim>1</dim>
					<dim>8</dim>
					<dim>200</dim>
					<dim>340</dim>
				</port>
				<port id="1">
					<dim>1</dim>
					<dim>8</dim>
					<dim>1</dim>
					<dim>1</dim>
				</port>
			</input>
			<output>
				<port id="2" precision="FP16">
					<dim>1</dim>
					<dim>8</dim>
					<dim>200</dim>
					<dim>340</dim>
				</port>
			</output>
		</layer>
		<layer id="213" name="bottleneck1_4/dim_red/fn59987/Cast_123315_const" type="Const" version="opset1">
			<data element_type="f32" offset="1386" shape="1" size="4"/>
			<output>
				<port id="1" precision="FP32">
					<dim>1</dim>
				</port>
			</output>
		</layer>
		<layer id="214" name="bottleneck1_4/dim_red/fn59987" type="PReLU" version="opset1">
			<input>
				<port id="0">
					<dim>1</dim>
					<dim>8</dim>
					<dim>200</dim>
					<dim>340</dim>
				</port>
				<port id="1">
					<dim>1</dim>
				</port>
			</input>
			<output>
				<port id="2" precision="FP16">
					<dim>1</dim>
					<dim>8</dim>
					<dim>200</dim>
					<dim>340</dim>
				</port>
			</output>
		</layer>
		<layer id="215" name="65216525_const" type="Const" version="opset1">
			<data element_type="f16" offset="4178" shape="1,8,1,1" size="16"/>
			<output>
				<port id="1" precision="FP16">
					<dim>1</dim>
					<dim>8</dim>
					<dim>1</dim>
					<dim>1</dim>
				</port>
			</output>
		</layer>
		<layer id="216" name="65226526_const" type="Const" version="opset1">
			<data element_type="f16" offset="4194" shape="1,8,1,1" size="16"/>
			<output>
				<port id="1" precision="FP16">
					<dim>1</dim>
					<dim>8</dim>
					<dim>1</dim>
					<dim>1</dim>
				</port>
			</output>
		</layer>
		<layer id="217" name="65236527_const" type="Const" version="opset1">
			<data element_type="f16" offset="4178" shape="1,8,1,1" size="16"/>
			<output>
				<port id="1" precision="FP16">
					<dim>1</dim>
					<dim>8</dim>
					<dim>1</dim>
					<dim>1</dim>
				</port>
			</output>
		</layer>
		<layer id="218" name="65246528_const" type="Const" version="opset1">
			<data element_type="f16" offset="4194" shape="1,8,1,1" size="16"/>
			<output>
				<port id="1" precision="FP16">
					<dim>1</dim>
					<dim>8</dim>
					<dim>1</dim>
					<dim>1</dim>
				</port>
			</output>
		</layer>
		<layer id="219" name="bottleneck1_4/inner/dw1/conv/fq_input_0" type="FakeQuantize" version="opset1">
			<data levels="256"/>
			<input>
				<port id="0">
					<dim>1</dim>
					<dim>8</dim>
					<dim>200</dim>
					<dim>340</dim>
				</port>
				<port id="1">
					<dim>1</dim>
					<dim>8</dim>
					<dim>1</dim>
					<dim>1</dim>
				</port>
				<port id="2">
					<dim>1</dim>
					<dim>8</dim>
					<dim>1</dim>
					<dim>1</dim>
				</port>
				<port id="3">
					<dim>1</dim>
					<dim>8</dim>
					<dim>1</dim>
					<dim>1</dim>
				</port>
				<port id="4">
					<dim>1</dim>
					<dim>8</dim>
					<dim>1</dim>
					<dim>1</dim>
				</port>
			</input>
			<output>
				<port id="5" precision="FP16">
					<dim>1</dim>
					<dim>8</dim>
					<dim>200</dim>
					<dim>340</dim>
				</port>
			</output>
		</layer>
		<layer id="220" name="bottleneck1_4/inner/dw1/conv/fq_weights_1/Convert_to_float/Cast_023375_const" type="Const" version="opset1">
			<data element_type="u8" offset="4210" shape="8,1,3,3" size="72"/>
			<output>
				<port id="1" precision="U8">
					<dim>8</dim>
					<dim>1</dim>
					<dim>3</dim>
					<dim>3</dim>
				</port>
			</output>
		</layer>
		<layer id="221" name="bottleneck1_4/inner/dw1/conv/fq_weights_1/Convert_to_float" type="Convert" version="opset1">
			<data destination_type="f16"/>
			<input>
				<port id="0">
					<dim>8</dim>
					<dim>1</dim>
					<dim>3</dim>
					<dim>3</dim>
				</port>
			</input>
			<output>
				<port id="1" precision="FP16">
					<dim>8</dim>
					<dim>1</dim>
					<dim>3</dim>
					<dim>3</dim>
				</port>
			</output>
		</layer>
		<layer id="222" name="bottleneck1_4/inner/dw1/conv/fq_weights_1/Copy/out_low19705_const" type="Const" version="opset1">
			<data element_type="f16" offset="1336" shape="1" size="2"/>
			<output>
				<port id="1" precision="FP16">
					<dim>1</dim>
				</port>
			</output>
		</layer>
		<layer id="223" name="bottleneck1_4/inner/dw1/conv/fq_weights_1/Copy/out_high19706_const" type="Const" version="opset1">
			<data element_type="f16" offset="882" shape="1" size="2"/>
			<output>
				<port id="1" precision="FP16">
					<dim>1</dim>
				</port>
			</output>
		</layer>
		<layer id="224" name="65336537_const" type="Const" version="opset1">
			<data element_type="f16" offset="4282" shape="8,1,1,1" size="16"/>
			<output>
				<port id="1" precision="FP16">
					<dim>8</dim>
					<dim>1</dim>
					<dim>1</dim>
					<dim>1</dim>
				</port>
			</output>
		</layer>
		<layer id="225" name="65346538_const" type="Const" version="opset1">
			<data element_type="f16" offset="4298" shape="8,1,1,1" size="16"/>
			<output>
				<port id="1" precision="FP16">
					<dim>8</dim>
					<dim>1</dim>
					<dim>1</dim>
					<dim>1</dim>
				</port>
			</output>
		</layer>
		<layer id="226" name="bottleneck1_4/inner/dw1/conv/fq_weights_1" type="FakeQuantize" version="opset1">
			<data levels="255"/>
			<input>
				<port id="0">
					<dim>8</dim>
					<dim>1</dim>
					<dim>3</dim>
					<dim>3</dim>
				</port>
				<port id="1">
					<dim>1</dim>
				</port>
				<port id="2">
					<dim>1</dim>
				</port>
				<port id="3">
					<dim>8</dim>
					<dim>1</dim>
					<dim>1</dim>
					<dim>1</dim>
				</port>
				<port id="4">
					<dim>8</dim>
					<dim>1</dim>
					<dim>1</dim>
					<dim>1</dim>
				</port>
			</input>
			<output>
				<port id="5" precision="FP16">
					<dim>8</dim>
					<dim>1</dim>
					<dim>3</dim>
					<dim>3</dim>
				</port>
			</output>
		</layer>
		<layer id="227" name="26354/value26356_const" type="Const" version="opset1">
			<data element_type="i64" offset="1526" shape="5" size="40"/>
			<output>
				<port id="1" precision="I64">
					<dim>5</dim>
				</port>
			</output>
		</layer>
		<layer id="228" name="26354" type="Reshape" version="opset1">
			<data special_zero="True"/>
			<input>
				<port id="0">
					<dim>8</dim>
					<dim>1</dim>
					<dim>3</dim>
					<dim>3</dim>
				</port>
				<port id="1">
					<dim>5</dim>
				</port>
			</input>
			<output>
				<port id="2" precision="FP16">
					<dim>8</dim>
					<dim>1</dim>
					<dim>1</dim>
					<dim>3</dim>
					<dim>3</dim>
				</port>
			</output>
		</layer>
		<layer id="229" name="bottleneck1_4/inner/dw1/conv" type="GroupConvolution" version="opset1">
			<data dilations="1,1" output_padding="0,0" pads_begin="1,1" pads_end="1,1" strides="1,1"/>
			<input>
				<port id="0">
					<dim>1</dim>
					<dim>8</dim>
					<dim>200</dim>
					<dim>340</dim>
				</port>
				<port id="1">
					<dim>8</dim>
					<dim>1</dim>
					<dim>1</dim>
					<dim>3</dim>
					<dim>3</dim>
				</port>
			</input>
			<output>
				<port id="2" precision="FP16">
					<dim>1</dim>
					<dim>8</dim>
					<dim>200</dim>
					<dim>340</dim>
				</port>
			</output>
		</layer>
		<layer id="230" name="data_add_4655246557/copy_const1455_const" type="Const" version="opset1">
			<data element_type="f16" offset="4314" shape="1,8,1,1" size="16"/>
			<output>
				<port id="1" precision="FP16">
					<dim>1</dim>
					<dim>8</dim>
					<dim>1</dim>
					<dim>1</dim>
				</port>
			</output>
		</layer>
		<layer id="231" name="bottleneck1_4/inner/dw1/bn/variance/Fused_Add_" type="Add" version="opset1">
			<input>
				<port id="0">
					<dim>1</dim>
					<dim>8</dim>
					<dim>200</dim>
					<dim>340</dim>
				</port>
				<port id="1">
					<dim>1</dim>
					<dim>8</dim>
					<dim>1</dim>
					<dim>1</dim>
				</port>
			</input>
			<output>
				<port id="2" precision="FP16">
					<dim>1</dim>
					<dim>8</dim>
					<dim>200</dim>
					<dim>340</dim>
				</port>
			</output>
		</layer>
		<layer id="232" name="bottleneck1_4/inner/dw1/fn60231/Cast_123031_const" type="Const" version="opset1">
			<data element_type="f32" offset="1386" shape="1" size="4"/>
			<output>
				<port id="1" precision="FP32">
					<dim>1</dim>
				</port>
			</output>
		</layer>
		<layer id="233" name="bottleneck1_4/inner/dw1/fn60231" type="PReLU" version="opset1">
			<input>
				<port id="0">
					<dim>1</dim>
					<dim>8</dim>
					<dim>200</dim>
					<dim>340</dim>
				</port>
				<port id="1">
					<dim>1</dim>
				</port>
			</input>
			<output>
				<port id="2" precision="FP16">
					<dim>1</dim>
					<dim>8</dim>
					<dim>200</dim>
					<dim>340</dim>
				</port>
			</output>
		</layer>
		<layer id="234" name="51615165_const" type="Const" version="opset1">
			<data element_type="f16" offset="4330" shape="" size="2"/>
			<output>
				<port id="1" precision="FP16"/>
			</output>
		</layer>
		<layer id="235" name="51625166_const" type="Const" version="opset1">
			<data element_type="f16" offset="4332" shape="" size="2"/>
			<output>
				<port id="1" precision="FP16"/>
			</output>
		</layer>
		<layer id="236" name="51635167_const" type="Const" version="opset1">
			<data element_type="f16" offset="4330" shape="" size="2"/>
			<output>
				<port id="1" precision="FP16"/>
			</output>
		</layer>
		<layer id="237" name="51645168_const" type="Const" version="opset1">
			<data element_type="f16" offset="4332" shape="" size="2"/>
			<output>
				<port id="1" precision="FP16"/>
			</output>
		</layer>
		<layer id="238" name="bottleneck1_4/dim_inc/conv/fq_input_0" type="FakeQuantize" version="opset1">
			<data levels="256"/>
			<input>
				<port id="0">
					<dim>1</dim>
					<dim>8</dim>
					<dim>200</dim>
					<dim>340</dim>
				</port>
				<port id="1"/>
				<port id="2"/>
				<port id="3"/>
				<port id="4"/>
			</input>
			<output>
				<port id="5" precision="FP16">
					<dim>1</dim>
					<dim>8</dim>
					<dim>200</dim>
					<dim>340</dim>
				</port>
			</output>
		</layer>
		<layer id="239" name="bottleneck1_4/dim_inc/conv/fq_weights_1/Convert_to_float/Cast_022875_const" type="Const" version="opset1">
			<data element_type="u8" offset="4334" shape="32,8,1,1" size="256"/>
			<output>
				<port id="1" precision="U8">
					<dim>32</dim>
					<dim>8</dim>
					<dim>1</dim>
					<dim>1</dim>
				</port>
			</output>
		</layer>
		<layer id="240" name="bottleneck1_4/dim_inc/conv/fq_weights_1/Convert_to_float" type="Convert" version="opset1">
			<data destination_type="f16"/>
			<input>
				<port id="0">
					<dim>32</dim>
					<dim>8</dim>
					<dim>1</dim>
					<dim>1</dim>
				</port>
			</input>
			<output>
				<port id="1" precision="FP16">
					<dim>32</dim>
					<dim>8</dim>
					<dim>1</dim>
					<dim>1</dim>
				</port>
			</output>
		</layer>
		<layer id="241" name="bottleneck1_4/dim_inc/conv/fq_weights_1/Copy/out_low20089_const" type="Const" version="opset1">
			<data element_type="f16" offset="1336" shape="1" size="2"/>
			<output>
				<port id="1" precision="FP16">
					<dim>1</dim>
				</port>
			</output>
		</layer>
		<layer id="242" name="bottleneck1_4/dim_inc/conv/fq_weights_1/Copy/out_high20090_const" type="Const" version="opset1">
			<data element_type="f16" offset="882" shape="1" size="2"/>
			<output>
				<port id="1" precision="FP16">
					<dim>1</dim>
				</port>
			</output>
		</layer>
		<layer id="243" name="51735177_const" type="Const" version="opset1">
			<data element_type="f16" offset="4590" shape="32,1,1,1" size="64"/>
			<output>
				<port id="1" precision="FP16">
					<dim>32</dim>
					<dim>1</dim>
					<dim>1</dim>
					<dim>1</dim>
				</port>
			</output>
		</layer>
		<layer id="244" name="51745178_const" type="Const" version="opset1">
			<data element_type="f16" offset="4654" shape="32,1,1,1" size="64"/>
			<output>
				<port id="1" precision="FP16">
					<dim>32</dim>
					<dim>1</dim>
					<dim>1</dim>
					<dim>1</dim>
				</port>
			</output>
		</layer>
		<layer id="245" name="bottleneck1_4/dim_inc/conv/fq_weights_1" type="FakeQuantize" version="opset1">
			<data levels="255"/>
			<input>
				<port id="0">
					<dim>32</dim>
					<dim>8</dim>
					<dim>1</dim>
					<dim>1</dim>
				</port>
				<port id="1">
					<dim>1</dim>
				</port>
				<port id="2">
					<dim>1</dim>
				</port>
				<port id="3">
					<dim>32</dim>
					<dim>1</dim>
					<dim>1</dim>
					<dim>1</dim>
				</port>
				<port id="4">
					<dim>32</dim>
					<dim>1</dim>
					<dim>1</dim>
					<dim>1</dim>
				</port>
			</input>
			<output>
				<port id="5" precision="FP16">
					<dim>32</dim>
					<dim>8</dim>
					<dim>1</dim>
					<dim>1</dim>
				</port>
			</output>
		</layer>
		<layer id="246" name="bottleneck1_4/dim_inc/conv" type="Convolution" version="opset1">
			<data dilations="1,1" output_padding="0,0" pads_begin="0,0" pads_end="0,0" strides="1,1"/>
			<input>
				<port id="0">
					<dim>1</dim>
					<dim>8</dim>
					<dim>200</dim>
					<dim>340</dim>
				</port>
				<port id="1">
					<dim>32</dim>
					<dim>8</dim>
					<dim>1</dim>
					<dim>1</dim>
				</port>
			</input>
			<output>
				<port id="2" precision="FP16">
					<dim>1</dim>
					<dim>32</dim>
					<dim>200</dim>
					<dim>340</dim>
				</port>
			</output>
		</layer>
		<layer id="247" name="data_add_4656046565/copy_const1461_const" type="Const" version="opset1">
			<data element_type="f16" offset="4718" shape="1,32,1,1" size="64"/>
			<output>
				<port id="1" precision="FP16">
					<dim>1</dim>
					<dim>32</dim>
					<dim>1</dim>
					<dim>1</dim>
				</port>
			</output>
		</layer>
		<layer id="248" name="bottleneck1_4/dim_inc/bn/variance/Fused_Add_" type="Add" version="opset1">
			<input>
				<port id="0">
					<dim>1</dim>
					<dim>32</dim>
					<dim>200</dim>
					<dim>340</dim>
				</port>
				<port id="1">
					<dim>1</dim>
					<dim>32</dim>
					<dim>1</dim>
					<dim>1</dim>
				</port>
			</input>
			<output>
				<port id="2" precision="FP16">
					<dim>1</dim>
					<dim>32</dim>
					<dim>200</dim>
					<dim>340</dim>
				</port>
			</output>
		</layer>
		<layer id="249" name="73717375_const" type="Const" version="opset1">
			<data element_type="f16" offset="4782" shape="" size="2"/>
			<output>
				<port id="1" precision="FP16"/>
			</output>
		</layer>
		<layer id="250" name="73727376_const" type="Const" version="opset1">
			<data element_type="f16" offset="4784" shape="" size="2"/>
			<output>
				<port id="1" precision="FP16"/>
			</output>
		</layer>
		<layer id="251" name="73737377_const" type="Const" version="opset1">
			<data element_type="f16" offset="4782" shape="" size="2"/>
			<output>
				<port id="1" precision="FP16"/>
			</output>
		</layer>
		<layer id="252" name="73747378_const" type="Const" version="opset1">
			<data element_type="f16" offset="4784" shape="" size="2"/>
			<output>
				<port id="1" precision="FP16"/>
			</output>
		</layer>
		<layer id="253" name="bottleneck1_4/add/fq_input_1" type="FakeQuantize" version="opset1">
			<data levels="256"/>
			<input>
				<port id="0">
					<dim>1</dim>
					<dim>32</dim>
					<dim>200</dim>
					<dim>340</dim>
				</port>
				<port id="1"/>
				<port id="2"/>
				<port id="3"/>
				<port id="4"/>
			</input>
			<output>
				<port id="5" precision="FP16">
					<dim>1</dim>
					<dim>32</dim>
					<dim>200</dim>
					<dim>340</dim>
				</port>
			</output>
		</layer>
		<layer id="254" name="bottleneck1_4/add" type="Add" version="opset1">
			<input>
				<port id="0">
					<dim>1</dim>
					<dim>32</dim>
					<dim>200</dim>
					<dim>340</dim>
				</port>
				<port id="1">
					<dim>1</dim>
					<dim>32</dim>
					<dim>200</dim>
					<dim>340</dim>
				</port>
			</input>
			<output>
				<port id="2" precision="FP16">
					<dim>1</dim>
					<dim>32</dim>
					<dim>200</dim>
					<dim>340</dim>
				</port>
			</output>
		</layer>
		<layer id="255" name="bottleneck1_4/fn60475/Cast_122827_const" type="Const" version="opset1">
			<data element_type="f32" offset="1386" shape="1" size="4"/>
			<output>
				<port id="1" precision="FP32">
					<dim>1</dim>
				</port>
			</output>
		</layer>
		<layer id="256" name="bottleneck1_4/fn60475" type="PReLU" version="opset1">
			<input>
				<port id="0">
					<dim>1</dim>
					<dim>32</dim>
					<dim>200</dim>
					<dim>340</dim>
				</port>
				<port id="1">
					<dim>1</dim>
				</port>
			</input>
			<output>
				<port id="2" precision="FP16">
					<dim>1</dim>
					<dim>32</dim>
					<dim>200</dim>
					<dim>340</dim>
				</port>
			</output>
		</layer>
		<layer id="257" name="60816085_const" type="Const" version="opset1">
			<data element_type="f16" offset="4786" shape="" size="2"/>
			<output>
				<port id="1" precision="FP16"/>
			</output>
		</layer>
		<layer id="258" name="60826086_const" type="Const" version="opset1">
			<data element_type="f16" offset="4788" shape="" size="2"/>
			<output>
				<port id="1" precision="FP16"/>
			</output>
		</layer>
		<layer id="259" name="60836087_const" type="Const" version="opset1">
			<data element_type="f16" offset="4786" shape="" size="2"/>
			<output>
				<port id="1" precision="FP16"/>
			</output>
		</layer>
		<layer id="260" name="60846088_const" type="Const" version="opset1">
			<data element_type="f16" offset="4788" shape="" size="2"/>
			<output>
				<port id="1" precision="FP16"/>
			</output>
		</layer>
		<layer id="261" name="bottleneck2_0/dim_red/conv/fq_input_0" type="FakeQuantize" version="opset1">
			<data levels="256"/>
			<input>
				<port id="0">
					<dim>1</dim>
					<dim>32</dim>
					<dim>200</dim>
					<dim>340</dim>
				</port>
				<port id="1"/>
				<port id="2"/>
				<port id="3"/>
				<port id="4"/>
			</input>
			<output>
				<port id="5" precision="FP16">
					<dim>1</dim>
					<dim>32</dim>
					<dim>200</dim>
					<dim>340</dim>
				</port>
			</output>
		</layer>
		<layer id="262" name="bottleneck2_0/skip/pooling" type="MaxPool" version="opset1">
			<data kernel="2,2" pads_begin="0,0" pads_end="0,0" rounding_type="ceil" strides="2,2"/>
			<input>
				<port id="0">
					<dim>1</dim>
					<dim>32</dim>
					<dim>200</dim>
					<dim>340</dim>
				</port>
			</input>
			<output>
				<port id="1" precision="FP16">
					<dim>1</dim>
					<dim>32</dim>
					<dim>100</dim>
					<dim>170</dim>
				</port>
			</output>
		</layer>
		<layer id="263" name="bottleneck2_0/skip/conv/fq_weights_1/Convert_to_float/Cast_023309_const" type="Const" version="opset1">
			<data element_type="u8" offset="4790" shape="64,32,1,1" size="2048"/>
			<output>
				<port id="1" precision="U8">
					<dim>64</dim>
					<dim>32</dim>
					<dim>1</dim>
					<dim>1</dim>
				</port>
			</output>
		</layer>
		<layer id="264" name="bottleneck2_0/skip/conv/fq_weights_1/Convert_to_float" type="Convert" version="opset1">
			<data destination_type="f16"/>
			<input>
				<port id="0">
					<dim>64</dim>
					<dim>32</dim>
					<dim>1</dim>
					<dim>1</dim>
				</port>
			</input>
			<output>
				<port id="1" precision="FP16">
					<dim>64</dim>
					<dim>32</dim>
					<dim>1</dim>
					<dim>1</dim>
				</port>
			</output>
		</layer>
		<layer id="265" name="bottleneck2_0/skip/conv/fq_weights_1/Copy/out_low19377_const" type="Const" version="opset1">
			<data element_type="f16" offset="1336" shape="1" size="2"/>
			<output>
				<port id="1" precision="FP16">
					<dim>1</dim>
				</port>
			</output>
		</layer>
		<layer id="266" name="bottleneck2_0/skip/conv/fq_weights_1/Copy/out_high19378_const" type="Const" version="opset1">
			<data element_type="f16" offset="882" shape="1" size="2"/>
			<output>
				<port id="1" precision="FP16">
					<dim>1</dim>
				</port>
			</output>
		</layer>
		<layer id="267" name="88338837_const" type="Const" version="opset1">
			<data element_type="f16" offset="6838" shape="64,1,1,1" size="128"/>
			<output>
				<port id="1" precision="FP16">
					<dim>64</dim>
					<dim>1</dim>
					<dim>1</dim>
					<dim>1</dim>
				</port>
			</output>
		</layer>
		<layer id="268" name="88348838_const" type="Const" version="opset1">
			<data element_type="f16" offset="6966" shape="64,1,1,1" size="128"/>
			<output>
				<port id="1" precision="FP16">
					<dim>64</dim>
					<dim>1</dim>
					<dim>1</dim>
					<dim>1</dim>
				</port>
			</output>
		</layer>
		<layer id="269" name="bottleneck2_0/skip/conv/fq_weights_1" type="FakeQuantize" version="opset1">
			<data levels="255"/>
			<input>
				<port id="0">
					<dim>64</dim>
					<dim>32</dim>
					<dim>1</dim>
					<dim>1</dim>
				</port>
				<port id="1">
					<dim>1</dim>
				</port>
				<port id="2">
					<dim>1</dim>
				</port>
				<port id="3">
					<dim>64</dim>
					<dim>1</dim>
					<dim>1</dim>
					<dim>1</dim>
				</port>
				<port id="4">
					<dim>64</dim>
					<dim>1</dim>
					<dim>1</dim>
					<dim>1</dim>
				</port>
			</input>
			<output>
				<port id="5" precision="FP16">
					<dim>64</dim>
					<dim>32</dim>
					<dim>1</dim>
					<dim>1</dim>
				</port>
			</output>
		</layer>
		<layer id="270" name="bottleneck2_0/skip/conv" type="Convolution" version="opset1">
			<data dilations="1,1" output_padding="0,0" pads_begin="0,0" pads_end="0,0" strides="1,1"/>
			<input>
				<port id="0">
					<dim>1</dim>
					<dim>32</dim>
					<dim>100</dim>
					<dim>170</dim>
				</port>
				<port id="1">
					<dim>64</dim>
					<dim>32</dim>
					<dim>1</dim>
					<dim>1</dim>
				</port>
			</input>
			<output>
				<port id="2" precision="FP16">
					<dim>1</dim>
					<dim>64</dim>
					<dim>100</dim>
					<dim>170</dim>
				</port>
			</output>
		</layer>
		<layer id="271" name="data_add_4656846573/copy_const1469_const" type="Const" version="opset1">
			<data element_type="f16" offset="7094" shape="1,64,1,1" size="128"/>
			<output>
				<port id="1" precision="FP16">
					<dim>1</dim>
					<dim>64</dim>
					<dim>1</dim>
					<dim>1</dim>
				</port>
			</output>
		</layer>
		<layer id="272" name="bottleneck2_0/skip/bn/variance/Fused_Add_" type="Add" version="opset1">
			<input>
				<port id="0">
					<dim>1</dim>
					<dim>64</dim>
					<dim>100</dim>
					<dim>170</dim>
				</port>
				<port id="1">
					<dim>1</dim>
					<dim>64</dim>
					<dim>1</dim>
					<dim>1</dim>
				</port>
			</input>
			<output>
				<port id="2" precision="FP16">
					<dim>1</dim>
					<dim>64</dim>
					<dim>100</dim>
					<dim>170</dim>
				</port>
			</output>
		</layer>
		<layer id="273" name="95819585_const" type="Const" version="opset1">
			<data element_type="f16" offset="7222" shape="" size="2"/>
			<output>
				<port id="1" precision="FP16"/>
			</output>
		</layer>
		<layer id="274" name="95829586_const" type="Const" version="opset1">
			<data element_type="f16" offset="7224" shape="" size="2"/>
			<output>
				<port id="1" precision="FP16"/>
			</output>
		</layer>
		<layer id="275" name="95839587_const" type="Const" version="opset1">
			<data element_type="f16" offset="7222" shape="" size="2"/>
			<output>
				<port id="1" precision="FP16"/>
			</output>
		</layer>
		<layer id="276" name="95849588_const" type="Const" version="opset1">
			<data element_type="f16" offset="7224" shape="" size="2"/>
			<output>
				<port id="1" precision="FP16"/>
			</output>
		</layer>
		<layer id="277" name="bottleneck2_0/add/fq_input_0" type="FakeQuantize" version="opset1">
			<data levels="256"/>
			<input>
				<port id="0">
					<dim>1</dim>
					<dim>64</dim>
					<dim>100</dim>
					<dim>170</dim>
				</port>
				<port id="1"/>
				<port id="2"/>
				<port id="3"/>
				<port id="4"/>
			</input>
			<output>
				<port id="5" precision="FP16">
					<dim>1</dim>
					<dim>64</dim>
					<dim>100</dim>
					<dim>170</dim>
				</port>
			</output>
		</layer>
		<layer id="278" name="bottleneck2_0/dim_red/conv/fq_weights_1/Convert_to_float/Cast_022821_const" type="Const" version="opset1">
			<data element_type="u8" offset="7226" shape="16,32,1,1" size="512"/>
			<output>
				<port id="1" precision="U8">
					<dim>16</dim>
					<dim>32</dim>
					<dim>1</dim>
					<dim>1</dim>
				</port>
			</output>
		</layer>
		<layer id="279" name="bottleneck2_0/dim_red/conv/fq_weights_1/Convert_to_float" type="Convert" version="opset1">
			<data destination_type="f16"/>
			<input>
				<port id="0">
					<dim>16</dim>
					<dim>32</dim>
					<dim>1</dim>
					<dim>1</dim>
				</port>
			</input>
			<output>
				<port id="1" precision="FP16">
					<dim>16</dim>
					<dim>32</dim>
					<dim>1</dim>
					<dim>1</dim>
				</port>
			</output>
		</layer>
		<layer id="280" name="bottleneck2_0/dim_red/conv/fq_weights_1/Copy/out_low19689_const" type="Const" version="opset1">
			<data element_type="f16" offset="1336" shape="1" size="2"/>
			<output>
				<port id="1" precision="FP16">
					<dim>1</dim>
				</port>
			</output>
		</layer>
		<layer id="281" name="bottleneck2_0/dim_red/conv/fq_weights_1/Copy/out_high19690_const" type="Const" version="opset1">
			<data element_type="f16" offset="882" shape="1" size="2"/>
			<output>
				<port id="1" precision="FP16">
					<dim>1</dim>
				</port>
			</output>
		</layer>
		<layer id="282" name="60936097_const" type="Const" version="opset1">
			<data element_type="f16" offset="7738" shape="16,1,1,1" size="32"/>
			<output>
				<port id="1" precision="FP16">
					<dim>16</dim>
					<dim>1</dim>
					<dim>1</dim>
					<dim>1</dim>
				</port>
			</output>
		</layer>
		<layer id="283" name="60946098_const" type="Const" version="opset1">
			<data element_type="f16" offset="7770" shape="16,1,1,1" size="32"/>
			<output>
				<port id="1" precision="FP16">
					<dim>16</dim>
					<dim>1</dim>
					<dim>1</dim>
					<dim>1</dim>
				</port>
			</output>
		</layer>
		<layer id="284" name="bottleneck2_0/dim_red/conv/fq_weights_1" type="FakeQuantize" version="opset1">
			<data levels="255"/>
			<input>
				<port id="0">
					<dim>16</dim>
					<dim>32</dim>
					<dim>1</dim>
					<dim>1</dim>
				</port>
				<port id="1">
					<dim>1</dim>
				</port>
				<port id="2">
					<dim>1</dim>
				</port>
				<port id="3">
					<dim>16</dim>
					<dim>1</dim>
					<dim>1</dim>
					<dim>1</dim>
				</port>
				<port id="4">
					<dim>16</dim>
					<dim>1</dim>
					<dim>1</dim>
					<dim>1</dim>
				</port>
			</input>
			<output>
				<port id="5" precision="FP16">
					<dim>16</dim>
					<dim>32</dim>
					<dim>1</dim>
					<dim>1</dim>
				</port>
			</output>
		</layer>
		<layer id="285" name="bottleneck2_0/dim_red/conv" type="Convolution" version="opset1">
			<data dilations="1,1" output_padding="0,0" pads_begin="0,0" pads_end="0,0" strides="1,1"/>
			<input>
				<port id="0">
					<dim>1</dim>
					<dim>32</dim>
					<dim>200</dim>
					<dim>340</dim>
				</port>
				<port id="1">
					<dim>16</dim>
					<dim>32</dim>
					<dim>1</dim>
					<dim>1</dim>
				</port>
			</input>
			<output>
				<port id="2" precision="FP16">
					<dim>1</dim>
					<dim>16</dim>
					<dim>200</dim>
					<dim>340</dim>
				</port>
			</output>
		</layer>
		<layer id="286" name="data_add_4657646581/copy_const1473_const" type="Const" version="opset1">
			<data element_type="f16" offset="7802" shape="1,16,1,1" size="32"/>
			<output>
				<port id="1" precision="FP16">
					<dim>1</dim>
					<dim>16</dim>
					<dim>1</dim>
					<dim>1</dim>
				</port>
			</output>
		</layer>
		<layer id="287" name="bottleneck2_0/dim_red/bn/variance/Fused_Add_" type="Add" version="opset1">
			<input>
				<port id="0">
					<dim>1</dim>
					<dim>16</dim>
					<dim>200</dim>
					<dim>340</dim>
				</port>
				<port id="1">
					<dim>1</dim>
					<dim>16</dim>
					<dim>1</dim>
					<dim>1</dim>
				</port>
			</input>
			<output>
				<port id="2" precision="FP16">
					<dim>1</dim>
					<dim>16</dim>
					<dim>200</dim>
					<dim>340</dim>
				</port>
			</output>
		</layer>
		<layer id="288" name="bottleneck2_0/dim_red/fn60139/Cast_122801_const" type="Const" version="opset1">
			<data element_type="f32" offset="1386" shape="1" size="4"/>
			<output>
				<port id="1" precision="FP32">
					<dim>1</dim>
				</port>
			</output>
		</layer>
		<layer id="289" name="bottleneck2_0/dim_red/fn60139" type="PReLU" version="opset1">
			<input>
				<port id="0">
					<dim>1</dim>
					<dim>16</dim>
					<dim>200</dim>
					<dim>340</dim>
				</port>
				<port id="1">
					<dim>1</dim>
				</port>
			</input>
			<output>
				<port id="2" precision="FP16">
					<dim>1</dim>
					<dim>16</dim>
					<dim>200</dim>
					<dim>340</dim>
				</port>
			</output>
		</layer>
		<layer id="290" name="66016605_const" type="Const" version="opset1">
			<data element_type="f16" offset="7834" shape="1,16,1,1" size="32"/>
			<output>
				<port id="1" precision="FP16">
					<dim>1</dim>
					<dim>16</dim>
					<dim>1</dim>
					<dim>1</dim>
				</port>
			</output>
		</layer>
		<layer id="291" name="66026606_const" type="Const" version="opset1">
			<data element_type="f16" offset="7866" shape="1,16,1,1" size="32"/>
			<output>
				<port id="1" precision="FP16">
					<dim>1</dim>
					<dim>16</dim>
					<dim>1</dim>
					<dim>1</dim>
				</port>
			</output>
		</layer>
		<layer id="292" name="66036607_const" type="Const" version="opset1">
			<data element_type="f16" offset="7834" shape="1,16,1,1" size="32"/>
			<output>
				<port id="1" precision="FP16">
					<dim>1</dim>
					<dim>16</dim>
					<dim>1</dim>
					<dim>1</dim>
				</port>
			</output>
		</layer>
		<layer id="293" name="66046608_const" type="Const" version="opset1">
			<data element_type="f16" offset="7866" shape="1,16,1,1" size="32"/>
			<output>
				<port id="1" precision="FP16">
					<dim>1</dim>
					<dim>16</dim>
					<dim>1</dim>
					<dim>1</dim>
				</port>
			</output>
		</layer>
		<layer id="294" name="bottleneck2_0/inner/dw1/conv/fq_input_0" type="FakeQuantize" version="opset1">
			<data levels="256"/>
			<input>
				<port id="0">
					<dim>1</dim>
					<dim>16</dim>
					<dim>200</dim>
					<dim>340</dim>
				</port>
				<port id="1">
					<dim>1</dim>
					<dim>16</dim>
					<dim>1</dim>
					<dim>1</dim>
				</port>
				<port id="2">
					<dim>1</dim>
					<dim>16</dim>
					<dim>1</dim>
					<dim>1</dim>
				</port>
				<port id="3">
					<dim>1</dim>
					<dim>16</dim>
					<dim>1</dim>
					<dim>1</dim>
				</port>
				<port id="4">
					<dim>1</dim>
					<dim>16</dim>
					<dim>1</dim>
					<dim>1</dim>
				</port>
			</input>
			<output>
				<port id="5" precision="FP16">
					<dim>1</dim>
					<dim>16</dim>
					<dim>200</dim>
					<dim>340</dim>
				</port>
			</output>
		</layer>
		<layer id="295" name="bottleneck2_0/inner/dw1/conv/fq_weights_1/Convert_to_float/Cast_023537_const" type="Const" version="opset1">
			<data element_type="u8" offset="7898" shape="16,1,3,3" size="144"/>
			<output>
				<port id="1" precision="U8">
					<dim>16</dim>
					<dim>1</dim>
					<dim>3</dim>
					<dim>3</dim>
				</port>
			</output>
		</layer>
		<layer id="296" name="bottleneck2_0/inner/dw1/conv/fq_weights_1/Convert_to_float" type="Convert" version="opset1">
			<data destination_type="f16"/>
			<input>
				<port id="0">
					<dim>16</dim>
					<dim>1</dim>
					<dim>3</dim>
					<dim>3</dim>
				</port>
			</input>
			<output>
				<port id="1" precision="FP16">
					<dim>16</dim>
					<dim>1</dim>
					<dim>3</dim>
					<dim>3</dim>
				</port>
			</output>
		</layer>
		<layer id="297" name="bottleneck2_0/inner/dw1/conv/fq_weights_1/Copy/out_low18833_const" type="Const" version="opset1">
			<data element_type="f16" offset="1336" shape="1" size="2"/>
			<output>
				<port id="1" precision="FP16">
					<dim>1</dim>
				</port>
			</output>
		</layer>
		<layer id="298" name="bottleneck2_0/inner/dw1/conv/fq_weights_1/Copy/out_high18834_const" type="Const" version="opset1">
			<data element_type="f16" offset="882" shape="1" size="2"/>
			<output>
				<port id="1" precision="FP16">
					<dim>1</dim>
				</port>
			</output>
		</layer>
		<layer id="299" name="66136617_const" type="Const" version="opset1">
			<data element_type="f16" offset="8042" shape="16,1,1,1" size="32"/>
			<output>
				<port id="1" precision="FP16">
					<dim>16</dim>
					<dim>1</dim>
					<dim>1</dim>
					<dim>1</dim>
				</port>
			</output>
		</layer>
		<layer id="300" name="66146618_const" type="Const" version="opset1">
			<data element_type="f16" offset="8074" shape="16,1,1,1" size="32"/>
			<output>
				<port id="1" precision="FP16">
					<dim>16</dim>
					<dim>1</dim>
					<dim>1</dim>
					<dim>1</dim>
				</port>
			</output>
		</layer>
		<layer id="301" name="bottleneck2_0/inner/dw1/conv/fq_weights_1" type="FakeQuantize" version="opset1">
			<data levels="255"/>
			<input>
				<port id="0">
					<dim>16</dim>
					<dim>1</dim>
					<dim>3</dim>
					<dim>3</dim>
				</port>
				<port id="1">
					<dim>1</dim>
				</port>
				<port id="2">
					<dim>1</dim>
				</port>
				<port id="3">
					<dim>16</dim>
					<dim>1</dim>
					<dim>1</dim>
					<dim>1</dim>
				</port>
				<port id="4">
					<dim>16</dim>
					<dim>1</dim>
					<dim>1</dim>
					<dim>1</dim>
				</port>
			</input>
			<output>
				<port id="5" precision="FP16">
					<dim>16</dim>
					<dim>1</dim>
					<dim>3</dim>
					<dim>3</dim>
				</port>
			</output>
		</layer>
		<layer id="302" name="26190/value26192_const" type="Const" version="opset1">
			<data element_type="i64" offset="8106" shape="5" size="40"/>
			<output>
				<port id="1" precision="I64">
					<dim>5</dim>
				</port>
			</output>
		</layer>
		<layer id="303" name="26190" type="Reshape" version="opset1">
			<data special_zero="True"/>
			<input>
				<port id="0">
					<dim>16</dim>
					<dim>1</dim>
					<dim>3</dim>
					<dim>3</dim>
				</port>
				<port id="1">
					<dim>5</dim>
				</port>
			</input>
			<output>
				<port id="2" precision="FP16">
					<dim>16</dim>
					<dim>1</dim>
					<dim>1</dim>
					<dim>3</dim>
					<dim>3</dim>
				</port>
			</output>
		</layer>
		<layer id="304" name="bottleneck2_0/inner/dw1/conv" type="GroupConvolution" version="opset1">
			<data dilations="1,1" output_padding="0,0" pads_begin="1,1" pads_end="1,1" strides="2,2"/>
			<input>
				<port id="0">
					<dim>1</dim>
					<dim>16</dim>
					<dim>200</dim>
					<dim>340</dim>
				</port>
				<port id="1">
					<dim>16</dim>
					<dim>1</dim>
					<dim>1</dim>
					<dim>3</dim>
					<dim>3</dim>
				</port>
			</input>
			<output>
				<port id="2" precision="FP16">
					<dim>1</dim>
					<dim>16</dim>
					<dim>100</dim>
					<dim>170</dim>
				</port>
			</output>
		</layer>
		<layer id="305" name="data_add_4658446589/copy_const1479_const" type="Const" version="opset1">
			<data element_type="f16" offset="8146" shape="1,16,1,1" size="32"/>
			<output>
				<port id="1" precision="FP16">
					<dim>1</dim>
					<dim>16</dim>
					<dim>1</dim>
					<dim>1</dim>
				</port>
			</output>
		</layer>
		<layer id="306" name="bottleneck2_0/inner/dw1/bn/variance/Fused_Add_" type="Add" version="opset1">
			<input>
				<port id="0">
					<dim>1</dim>
					<dim>16</dim>
					<dim>100</dim>
					<dim>170</dim>
				</port>
				<port id="1">
					<dim>1</dim>
					<dim>16</dim>
					<dim>1</dim>
					<dim>1</dim>
				</port>
			</input>
			<output>
				<port id="2" precision="FP16">
					<dim>1</dim>
					<dim>16</dim>
					<dim>100</dim>
					<dim>170</dim>
				</port>
			</output>
		</layer>
		<layer id="307" name="bottleneck2_0/inner/dw1/fn60651/Cast_122845_const" type="Const" version="opset1">
			<data element_type="f32" offset="1386" shape="1" size="4"/>
			<output>
				<port id="1" precision="FP32">
					<dim>1</dim>
				</port>
			</output>
		</layer>
		<layer id="308" name="bottleneck2_0/inner/dw1/fn60651" type="PReLU" version="opset1">
			<input>
				<port id="0">
					<dim>1</dim>
					<dim>16</dim>
					<dim>100</dim>
					<dim>170</dim>
				</port>
				<port id="1">
					<dim>1</dim>
				</port>
			</input>
			<output>
				<port id="2" precision="FP16">
					<dim>1</dim>
					<dim>16</dim>
					<dim>100</dim>
					<dim>170</dim>
				</port>
			</output>
		</layer>
		<layer id="309" name="63416345_const" type="Const" version="opset1">
			<data element_type="f16" offset="8178" shape="" size="2"/>
			<output>
				<port id="1" precision="FP16"/>
			</output>
		</layer>
		<layer id="310" name="63426346_const" type="Const" version="opset1">
			<data element_type="f16" offset="8180" shape="" size="2"/>
			<output>
				<port id="1" precision="FP16"/>
			</output>
		</layer>
		<layer id="311" name="63436347_const" type="Const" version="opset1">
			<data element_type="f16" offset="8178" shape="" size="2"/>
			<output>
				<port id="1" precision="FP16"/>
			</output>
		</layer>
		<layer id="312" name="63446348_const" type="Const" version="opset1">
			<data element_type="f16" offset="8180" shape="" size="2"/>
			<output>
				<port id="1" precision="FP16"/>
			</output>
		</layer>
		<layer id="313" name="bottleneck2_0/dim_inc/conv/fq_input_0" type="FakeQuantize" version="opset1">
			<data levels="256"/>
			<input>
				<port id="0">
					<dim>1</dim>
					<dim>16</dim>
					<dim>100</dim>
					<dim>170</dim>
				</port>
				<port id="1"/>
				<port id="2"/>
				<port id="3"/>
				<port id="4"/>
			</input>
			<output>
				<port id="5" precision="FP16">
					<dim>1</dim>
					<dim>16</dim>
					<dim>100</dim>
					<dim>170</dim>
				</port>
			</output>
		</layer>
		<layer id="314" name="bottleneck2_0/dim_inc/conv/fq_weights_1/Convert_to_float/Cast_023285_const" type="Const" version="opset1">
			<data element_type="u8" offset="8182" shape="64,16,1,1" size="1024"/>
			<output>
				<port id="1" precision="U8">
					<dim>64</dim>
					<dim>16</dim>
					<dim>1</dim>
					<dim>1</dim>
				</port>
			</output>
		</layer>
		<layer id="315" name="bottleneck2_0/dim_inc/conv/fq_weights_1/Convert_to_float" type="Convert" version="opset1">
			<data destination_type="f16"/>
			<input>
				<port id="0">
					<dim>64</dim>
					<dim>16</dim>
					<dim>1</dim>
					<dim>1</dim>
				</port>
			</input>
			<output>
				<port id="1" precision="FP16">
					<dim>64</dim>
					<dim>16</dim>
					<dim>1</dim>
					<dim>1</dim>
				</port>
			</output>
		</layer>
		<layer id="316" name="bottleneck2_0/dim_inc/conv/fq_weights_1/Copy/out_low18609_const" type="Const" version="opset1">
			<data element_type="f16" offset="1336" shape="1" size="2"/>
			<output>
				<port id="1" precision="FP16">
					<dim>1</dim>
				</port>
			</output>
		</layer>
		<layer id="317" name="bottleneck2_0/dim_inc/conv/fq_weights_1/Copy/out_high18610_const" type="Const" version="opset1">
			<data element_type="f16" offset="882" shape="1" size="2"/>
			<output>
				<port id="1" precision="FP16">
					<dim>1</dim>
				</port>
			</output>
		</layer>
		<layer id="318" name="63536357_const" type="Const" version="opset1">
			<data element_type="f16" offset="9206" shape="64,1,1,1" size="128"/>
			<output>
				<port id="1" precision="FP16">
					<dim>64</dim>
					<dim>1</dim>
					<dim>1</dim>
					<dim>1</dim>
				</port>
			</output>
		</layer>
		<layer id="319" name="63546358_const" type="Const" version="opset1">
			<data element_type="f16" offset="9334" shape="64,1,1,1" size="128"/>
			<output>
				<port id="1" precision="FP16">
					<dim>64</dim>
					<dim>1</dim>
					<dim>1</dim>
					<dim>1</dim>
				</port>
			</output>
		</layer>
		<layer id="320" name="bottleneck2_0/dim_inc/conv/fq_weights_1" type="FakeQuantize" version="opset1">
			<data levels="255"/>
			<input>
				<port id="0">
					<dim>64</dim>
					<dim>16</dim>
					<dim>1</dim>
					<dim>1</dim>
				</port>
				<port id="1">
					<dim>1</dim>
				</port>
				<port id="2">
					<dim>1</dim>
				</port>
				<port id="3">
					<dim>64</dim>
					<dim>1</dim>
					<dim>1</dim>
					<dim>1</dim>
				</port>
				<port id="4">
					<dim>64</dim>
					<dim>1</dim>
					<dim>1</dim>
					<dim>1</dim>
				</port>
			</input>
			<output>
				<port id="5" precision="FP16">
					<dim>64</dim>
					<dim>16</dim>
					<dim>1</dim>
					<dim>1</dim>
				</port>
			</output>
		</layer>
		<layer id="321" name="bottleneck2_0/dim_inc/conv" type="Convolution" version="opset1">
			<data dilations="1,1" output_padding="0,0" pads_begin="0,0" pads_end="0,0" strides="1,1"/>
			<input>
				<port id="0">
					<dim>1</dim>
					<dim>16</dim>
					<dim>100</dim>
					<dim>170</dim>
				</port>
				<port id="1">
					<dim>64</dim>
					<dim>16</dim>
					<dim>1</dim>
					<dim>1</dim>
				</port>
			</input>
			<output>
				<port id="2" precision="FP16">
					<dim>1</dim>
					<dim>64</dim>
					<dim>100</dim>
					<dim>170</dim>
				</port>
			</output>
		</layer>
		<layer id="322" name="data_add_4659246597/copy_const1485_const" type="Const" version="opset1">
			<data element_type="f16" offset="9462" shape="1,64,1,1" size="128"/>
			<output>
				<port id="1" precision="FP16">
					<dim>1</dim>
					<dim>64</dim>
					<dim>1</dim>
					<dim>1</dim>
				</port>
			</output>
		</layer>
		<layer id="323" name="bottleneck2_0/dim_inc/bn/variance/Fused_Add_" type="Add" version="opset1">
			<input>
				<port id="0">
					<dim>1</dim>
					<dim>64</dim>
					<dim>100</dim>
					<dim>170</dim>
				</port>
				<port id="1">
					<dim>1</dim>
					<dim>64</dim>
					<dim>1</dim>
					<dim>1</dim>
				</port>
			</input>
			<output>
				<port id="2" precision="FP16">
					<dim>1</dim>
					<dim>64</dim>
					<dim>100</dim>
					<dim>170</dim>
				</port>
			</output>
		</layer>
		<layer id="324" name="95919595_const" type="Const" version="opset1">
			<data element_type="f16" offset="9590" shape="" size="2"/>
			<output>
				<port id="1" precision="FP16"/>
			</output>
		</layer>
		<layer id="325" name="95929596_const" type="Const" version="opset1">
			<data element_type="f16" offset="9592" shape="" size="2"/>
			<output>
				<port id="1" precision="FP16"/>
			</output>
		</layer>
		<layer id="326" name="95939597_const" type="Const" version="opset1">
			<data element_type="f16" offset="9590" shape="" size="2"/>
			<output>
				<port id="1" precision="FP16"/>
			</output>
		</layer>
		<layer id="327" name="95949598_const" type="Const" version="opset1">
			<data element_type="f16" offset="9592" shape="" size="2"/>
			<output>
				<port id="1" precision="FP16"/>
			</output>
		</layer>
		<layer id="328" name="bottleneck2_0/add/fq_input_1" type="FakeQuantize" version="opset1">
			<data levels="256"/>
			<input>
				<port id="0">
					<dim>1</dim>
					<dim>64</dim>
					<dim>100</dim>
					<dim>170</dim>
				</port>
				<port id="1"/>
				<port id="2"/>
				<port id="3"/>
				<port id="4"/>
			</input>
			<output>
				<port id="5" precision="FP16">
					<dim>1</dim>
					<dim>64</dim>
					<dim>100</dim>
					<dim>170</dim>
				</port>
			</output>
		</layer>
		<layer id="329" name="bottleneck2_0/add" type="Add" version="opset1">
			<input>
				<port id="0">
					<dim>1</dim>
					<dim>64</dim>
					<dim>100</dim>
					<dim>170</dim>
				</port>
				<port id="1">
					<dim>1</dim>
					<dim>64</dim>
					<dim>100</dim>
					<dim>170</dim>
				</port>
			</input>
			<output>
				<port id="2" precision="FP16">
					<dim>1</dim>
					<dim>64</dim>
					<dim>100</dim>
					<dim>170</dim>
				</port>
			</output>
		</layer>
		<layer id="330" name="bottleneck2_0/fn60059/Cast_123189_const" type="Const" version="opset1">
			<data element_type="f32" offset="1386" shape="1" size="4"/>
			<output>
				<port id="1" precision="FP32">
					<dim>1</dim>
				</port>
			</output>
		</layer>
		<layer id="331" name="bottleneck2_0/fn60059" type="PReLU" version="opset1">
			<input>
				<port id="0">
					<dim>1</dim>
					<dim>64</dim>
					<dim>100</dim>
					<dim>170</dim>
				</port>
				<port id="1">
					<dim>1</dim>
				</port>
			</input>
			<output>
				<port id="2" precision="FP16">
					<dim>1</dim>
					<dim>64</dim>
					<dim>100</dim>
					<dim>170</dim>
				</port>
			</output>
		</layer>
		<layer id="332" name="58215825_const" type="Const" version="opset1">
			<data element_type="f16" offset="9594" shape="" size="2"/>
			<output>
				<port id="1" precision="FP16"/>
			</output>
		</layer>
		<layer id="333" name="58225826_const" type="Const" version="opset1">
			<data element_type="f16" offset="9596" shape="" size="2"/>
			<output>
				<port id="1" precision="FP16"/>
			</output>
		</layer>
		<layer id="334" name="58235827_const" type="Const" version="opset1">
			<data element_type="f16" offset="9594" shape="" size="2"/>
			<output>
				<port id="1" precision="FP16"/>
			</output>
		</layer>
		<layer id="335" name="58245828_const" type="Const" version="opset1">
			<data element_type="f16" offset="9596" shape="" size="2"/>
			<output>
				<port id="1" precision="FP16"/>
			</output>
		</layer>
		<layer id="336" name="bottleneck2_1/add/fq_input_0" type="FakeQuantize" version="opset1">
			<data levels="256"/>
			<input>
				<port id="0">
					<dim>1</dim>
					<dim>64</dim>
					<dim>100</dim>
					<dim>170</dim>
				</port>
				<port id="1"/>
				<port id="2"/>
				<port id="3"/>
				<port id="4"/>
			</input>
			<output>
				<port id="5" precision="FP16">
					<dim>1</dim>
					<dim>64</dim>
					<dim>100</dim>
					<dim>170</dim>
				</port>
			</output>
		</layer>
		<layer id="337" name="bottleneck2_1/dim_red/conv/fq_weights_1/Convert_to_float/Cast_022855_const" type="Const" version="opset1">
			<data element_type="u8" offset="9598" shape="16,64,1,1" size="1024"/>
			<output>
				<port id="1" precision="U8">
					<dim>16</dim>
					<dim>64</dim>
					<dim>1</dim>
					<dim>1</dim>
				</port>
			</output>
		</layer>
		<layer id="338" name="bottleneck2_1/dim_red/conv/fq_weights_1/Convert_to_float" type="Convert" version="opset1">
			<data destination_type="f16"/>
			<input>
				<port id="0">
					<dim>16</dim>
					<dim>64</dim>
					<dim>1</dim>
					<dim>1</dim>
				</port>
			</input>
			<output>
				<port id="1" precision="FP16">
					<dim>16</dim>
					<dim>64</dim>
					<dim>1</dim>
					<dim>1</dim>
				</port>
			</output>
		</layer>
		<layer id="339" name="bottleneck2_1/dim_red/conv/fq_weights_1/Copy/out_low19681_const" type="Const" version="opset1">
			<data element_type="f16" offset="1336" shape="1" size="2"/>
			<output>
				<port id="1" precision="FP16">
					<dim>1</dim>
				</port>
			</output>
		</layer>
		<layer id="340" name="bottleneck2_1/dim_red/conv/fq_weights_1/Copy/out_high19682_const" type="Const" version="opset1">
			<data element_type="f16" offset="882" shape="1" size="2"/>
			<output>
				<port id="1" precision="FP16">
					<dim>1</dim>
				</port>
			</output>
		</layer>
		<layer id="341" name="88538857_const" type="Const" version="opset1">
			<data element_type="f16" offset="10622" shape="16,1,1,1" size="32"/>
			<output>
				<port id="1" precision="FP16">
					<dim>16</dim>
					<dim>1</dim>
					<dim>1</dim>
					<dim>1</dim>
				</port>
			</output>
		</layer>
		<layer id="342" name="88548858_const" type="Const" version="opset1">
			<data element_type="f16" offset="10654" shape="16,1,1,1" size="32"/>
			<output>
				<port id="1" precision="FP16">
					<dim>16</dim>
					<dim>1</dim>
					<dim>1</dim>
					<dim>1</dim>
				</port>
			</output>
		</layer>
		<layer id="343" name="bottleneck2_1/dim_red/conv/fq_weights_1" type="FakeQuantize" version="opset1">
			<data levels="255"/>
			<input>
				<port id="0">
					<dim>16</dim>
					<dim>64</dim>
					<dim>1</dim>
					<dim>1</dim>
				</port>
				<port id="1">
					<dim>1</dim>
				</port>
				<port id="2">
					<dim>1</dim>
				</port>
				<port id="3">
					<dim>16</dim>
					<dim>1</dim>
					<dim>1</dim>
					<dim>1</dim>
				</port>
				<port id="4">
					<dim>16</dim>
					<dim>1</dim>
					<dim>1</dim>
					<dim>1</dim>
				</port>
			</input>
			<output>
				<port id="5" precision="FP16">
					<dim>16</dim>
					<dim>64</dim>
					<dim>1</dim>
					<dim>1</dim>
				</port>
			</output>
		</layer>
		<layer id="344" name="bottleneck2_1/dim_red/conv" type="Convolution" version="opset1">
			<data dilations="1,1" output_padding="0,0" pads_begin="0,0" pads_end="0,0" strides="1,1"/>
			<input>
				<port id="0">
					<dim>1</dim>
					<dim>64</dim>
					<dim>100</dim>
					<dim>170</dim>
				</port>
				<port id="1">
					<dim>16</dim>
					<dim>64</dim>
					<dim>1</dim>
					<dim>1</dim>
				</port>
			</input>
			<output>
				<port id="2" precision="FP16">
					<dim>1</dim>
					<dim>16</dim>
					<dim>100</dim>
					<dim>170</dim>
				</port>
			</output>
		</layer>
		<layer id="345" name="data_add_4660046605/copy_const1492_const" type="Const" version="opset1">
			<data element_type="f16" offset="10686" shape="1,16,1,1" size="32"/>
			<output>
				<port id="1" precision="FP16">
					<dim>1</dim>
					<dim>16</dim>
					<dim>1</dim>
					<dim>1</dim>
				</port>
			</output>
		</layer>
		<layer id="346" name="bottleneck2_1/dim_red/bn/variance/Fused_Add_" type="Add" version="opset1">
			<input>
				<port id="0">
					<dim>1</dim>
					<dim>16</dim>
					<dim>100</dim>
					<dim>170</dim>
				</port>
				<port id="1">
					<dim>1</dim>
					<dim>16</dim>
					<dim>1</dim>
					<dim>1</dim>
				</port>
			</input>
			<output>
				<port id="2" precision="FP16">
					<dim>1</dim>
					<dim>16</dim>
					<dim>100</dim>
					<dim>170</dim>
				</port>
			</output>
		</layer>
		<layer id="347" name="bottleneck2_1/dim_red/fn60311/Cast_122949_const" type="Const" version="opset1">
			<data element_type="f32" offset="1386" shape="1" size="4"/>
			<output>
				<port id="1" precision="FP32">
					<dim>1</dim>
				</port>
			</output>
		</layer>
		<layer id="348" name="bottleneck2_1/dim_red/fn60311" type="PReLU" version="opset1">
			<input>
				<port id="0">
					<dim>1</dim>
					<dim>16</dim>
					<dim>100</dim>
					<dim>170</dim>
				</port>
				<port id="1">
					<dim>1</dim>
				</port>
			</input>
			<output>
				<port id="2" precision="FP16">
					<dim>1</dim>
					<dim>16</dim>
					<dim>100</dim>
					<dim>170</dim>
				</port>
			</output>
		</layer>
		<layer id="349" name="64216425_const" type="Const" version="opset1">
			<data element_type="f16" offset="10718" shape="1,16,1,1" size="32"/>
			<output>
				<port id="1" precision="FP16">
					<dim>1</dim>
					<dim>16</dim>
					<dim>1</dim>
					<dim>1</dim>
				</port>
			</output>
		</layer>
		<layer id="350" name="64226426_const" type="Const" version="opset1">
			<data element_type="f16" offset="10750" shape="1,16,1,1" size="32"/>
			<output>
				<port id="1" precision="FP16">
					<dim>1</dim>
					<dim>16</dim>
					<dim>1</dim>
					<dim>1</dim>
				</port>
			</output>
		</layer>
		<layer id="351" name="64236427_const" type="Const" version="opset1">
			<data element_type="f16" offset="10718" shape="1,16,1,1" size="32"/>
			<output>
				<port id="1" precision="FP16">
					<dim>1</dim>
					<dim>16</dim>
					<dim>1</dim>
					<dim>1</dim>
				</port>
			</output>
		</layer>
		<layer id="352" name="64246428_const" type="Const" version="opset1">
			<data element_type="f16" offset="10750" shape="1,16,1,1" size="32"/>
			<output>
				<port id="1" precision="FP16">
					<dim>1</dim>
					<dim>16</dim>
					<dim>1</dim>
					<dim>1</dim>
				</port>
			</output>
		</layer>
		<layer id="353" name="bottleneck2_1/inner/dw1/conv/fq_input_0" type="FakeQuantize" version="opset1">
			<data levels="256"/>
			<input>
				<port id="0">
					<dim>1</dim>
					<dim>16</dim>
					<dim>100</dim>
					<dim>170</dim>
				</port>
				<port id="1">
					<dim>1</dim>
					<dim>16</dim>
					<dim>1</dim>
					<dim>1</dim>
				</port>
				<port id="2">
					<dim>1</dim>
					<dim>16</dim>
					<dim>1</dim>
					<dim>1</dim>
				</port>
				<port id="3">
					<dim>1</dim>
					<dim>16</dim>
					<dim>1</dim>
					<dim>1</dim>
				</port>
				<port id="4">
					<dim>1</dim>
					<dim>16</dim>
					<dim>1</dim>
					<dim>1</dim>
				</port>
			</input>
			<output>
				<port id="5" precision="FP16">
					<dim>1</dim>
					<dim>16</dim>
					<dim>100</dim>
					<dim>170</dim>
				</port>
			</output>
		</layer>
		<layer id="354" name="bottleneck2_1/inner/dw1/conv/fq_weights_1/Convert_to_float/Cast_022799_const" type="Const" version="opset1">
			<data element_type="u8" offset="10782" shape="16,1,3,3" size="144"/>
			<output>
				<port id="1" precision="U8">
					<dim>16</dim>
					<dim>1</dim>
					<dim>3</dim>
					<dim>3</dim>
				</port>
			</output>
		</layer>
		<layer id="355" name="bottleneck2_1/inner/dw1/conv/fq_weights_1/Convert_to_float" type="Convert" version="opset1">
			<data destination_type="f16"/>
			<input>
				<port id="0">
					<dim>16</dim>
					<dim>1</dim>
					<dim>3</dim>
					<dim>3</dim>
				</port>
			</input>
			<output>
				<port id="1" precision="FP16">
					<dim>16</dim>
					<dim>1</dim>
					<dim>3</dim>
					<dim>3</dim>
				</port>
			</output>
		</layer>
		<layer id="356" name="bottleneck2_1/inner/dw1/conv/fq_weights_1/Copy/out_low19033_const" type="Const" version="opset1">
			<data element_type="f16" offset="1336" shape="1" size="2"/>
			<output>
				<port id="1" precision="FP16">
					<dim>1</dim>
				</port>
			</output>
		</layer>
		<layer id="357" name="bottleneck2_1/inner/dw1/conv/fq_weights_1/Copy/out_high19034_const" type="Const" version="opset1">
			<data element_type="f16" offset="882" shape="1" size="2"/>
			<output>
				<port id="1" precision="FP16">
					<dim>1</dim>
				</port>
			</output>
		</layer>
		<layer id="358" name="64336437_const" type="Const" version="opset1">
			<data element_type="f16" offset="10926" shape="16,1,1,1" size="32"/>
			<output>
				<port id="1" precision="FP16">
					<dim>16</dim>
					<dim>1</dim>
					<dim>1</dim>
					<dim>1</dim>
				</port>
			</output>
		</layer>
		<layer id="359" name="64346438_const" type="Const" version="opset1">
			<data element_type="f16" offset="10958" shape="16,1,1,1" size="32"/>
			<output>
				<port id="1" precision="FP16">
					<dim>16</dim>
					<dim>1</dim>
					<dim>1</dim>
					<dim>1</dim>
				</port>
			</output>
		</layer>
		<layer id="360" name="bottleneck2_1/inner/dw1/conv/fq_weights_1" type="FakeQuantize" version="opset1">
			<data levels="255"/>
			<input>
				<port id="0">
					<dim>16</dim>
					<dim>1</dim>
					<dim>3</dim>
					<dim>3</dim>
				</port>
				<port id="1">
					<dim>1</dim>
				</port>
				<port id="2">
					<dim>1</dim>
				</port>
				<port id="3">
					<dim>16</dim>
					<dim>1</dim>
					<dim>1</dim>
					<dim>1</dim>
				</port>
				<port id="4">
					<dim>16</dim>
					<dim>1</dim>
					<dim>1</dim>
					<dim>1</dim>
				</port>
			</input>
			<output>
				<port id="5" precision="FP16">
					<dim>16</dim>
					<dim>1</dim>
					<dim>3</dim>
					<dim>3</dim>
				</port>
			</output>
		</layer>
		<layer id="361" name="26182/value26184_const" type="Const" version="opset1">
			<data element_type="i64" offset="8106" shape="5" size="40"/>
			<output>
				<port id="1" precision="I64">
					<dim>5</dim>
				</port>
			</output>
		</layer>
		<layer id="362" name="26182" type="Reshape" version="opset1">
			<data special_zero="True"/>
			<input>
				<port id="0">
					<dim>16</dim>
					<dim>1</dim>
					<dim>3</dim>
					<dim>3</dim>
				</port>
				<port id="1">
					<dim>5</dim>
				</port>
			</input>
			<output>
				<port id="2" precision="FP16">
					<dim>16</dim>
					<dim>1</dim>
					<dim>1</dim>
					<dim>3</dim>
					<dim>3</dim>
				</port>
			</output>
		</layer>
		<layer id="363" name="bottleneck2_1/inner/dw1/conv" type="GroupConvolution" version="opset1">
			<data dilations="1,1" output_padding="0,0" pads_begin="1,1" pads_end="1,1" strides="1,1"/>
			<input>
				<port id="0">
					<dim>1</dim>
					<dim>16</dim>
					<dim>100</dim>
					<dim>170</dim>
				</port>
				<port id="1">
					<dim>16</dim>
					<dim>1</dim>
					<dim>1</dim>
					<dim>3</dim>
					<dim>3</dim>
				</port>
			</input>
			<output>
				<port id="2" precision="FP16">
					<dim>1</dim>
					<dim>16</dim>
					<dim>100</dim>
					<dim>170</dim>
				</port>
			</output>
		</layer>
		<layer id="364" name="data_add_4660846613/copy_const1498_const" type="Const" version="opset1">
			<data element_type="f16" offset="10990" shape="1,16,1,1" size="32"/>
			<output>
				<port id="1" precision="FP16">
					<dim>1</dim>
					<dim>16</dim>
					<dim>1</dim>
					<dim>1</dim>
				</port>
			</output>
		</layer>
		<layer id="365" name="bottleneck2_1/inner/dw1/bn/variance/Fused_Add_" type="Add" version="opset1">
			<input>
				<port id="0">
					<dim>1</dim>
					<dim>16</dim>
					<dim>100</dim>
					<dim>170</dim>
				</port>
				<port id="1">
					<dim>1</dim>
					<dim>16</dim>
					<dim>1</dim>
					<dim>1</dim>
				</port>
			</input>
			<output>
				<port id="2" precision="FP16">
					<dim>1</dim>
					<dim>16</dim>
					<dim>100</dim>
					<dim>170</dim>
				</port>
			</output>
		</layer>
		<layer id="366" name="bottleneck2_1/inner/dw1/fn60591/Cast_123261_const" type="Const" version="opset1">
			<data element_type="f32" offset="1386" shape="1" size="4"/>
			<output>
				<port id="1" precision="FP32">
					<dim>1</dim>
				</port>
			</output>
		</layer>
		<layer id="367" name="bottleneck2_1/inner/dw1/fn60591" type="PReLU" version="opset1">
			<input>
				<port id="0">
					<dim>1</dim>
					<dim>16</dim>
					<dim>100</dim>
					<dim>170</dim>
				</port>
				<port id="1">
					<dim>1</dim>
				</port>
			</input>
			<output>
				<port id="2" precision="FP16">
					<dim>1</dim>
					<dim>16</dim>
					<dim>100</dim>
					<dim>170</dim>
				</port>
			</output>
		</layer>
		<layer id="368" name="72417245_const" type="Const" version="opset1">
			<data element_type="f16" offset="11022" shape="" size="2"/>
			<output>
				<port id="1" precision="FP16"/>
			</output>
		</layer>
		<layer id="369" name="72427246_const" type="Const" version="opset1">
			<data element_type="f16" offset="11024" shape="" size="2"/>
			<output>
				<port id="1" precision="FP16"/>
			</output>
		</layer>
		<layer id="370" name="72437247_const" type="Const" version="opset1">
			<data element_type="f16" offset="11022" shape="" size="2"/>
			<output>
				<port id="1" precision="FP16"/>
			</output>
		</layer>
		<layer id="371" name="72447248_const" type="Const" version="opset1">
			<data element_type="f16" offset="11024" shape="" size="2"/>
			<output>
				<port id="1" precision="FP16"/>
			</output>
		</layer>
		<layer id="372" name="bottleneck2_1/dim_inc/conv/fq_input_0" type="FakeQuantize" version="opset1">
			<data levels="256"/>
			<input>
				<port id="0">
					<dim>1</dim>
					<dim>16</dim>
					<dim>100</dim>
					<dim>170</dim>
				</port>
				<port id="1"/>
				<port id="2"/>
				<port id="3"/>
				<port id="4"/>
			</input>
			<output>
				<port id="5" precision="FP16">
					<dim>1</dim>
					<dim>16</dim>
					<dim>100</dim>
					<dim>170</dim>
				</port>
			</output>
		</layer>
		<layer id="373" name="bottleneck2_1/dim_inc/conv/fq_weights_1/Convert_to_float/Cast_023497_const" type="Const" version="opset1">
			<data element_type="u8" offset="11026" shape="64,16,1,1" size="1024"/>
			<output>
				<port id="1" precision="U8">
					<dim>64</dim>
					<dim>16</dim>
					<dim>1</dim>
					<dim>1</dim>
				</port>
			</output>
		</layer>
		<layer id="374" name="bottleneck2_1/dim_inc/conv/fq_weights_1/Convert_to_float" type="Convert" version="opset1">
			<data destination_type="f16"/>
			<input>
				<port id="0">
					<dim>64</dim>
					<dim>16</dim>
					<dim>1</dim>
					<dim>1</dim>
				</port>
			</input>
			<output>
				<port id="1" precision="FP16">
					<dim>64</dim>
					<dim>16</dim>
					<dim>1</dim>
					<dim>1</dim>
				</port>
			</output>
		</layer>
		<layer id="375" name="bottleneck2_1/dim_inc/conv/fq_weights_1/Copy/out_low18977_const" type="Const" version="opset1">
			<data element_type="f16" offset="1336" shape="1" size="2"/>
			<output>
				<port id="1" precision="FP16">
					<dim>1</dim>
				</port>
			</output>
		</layer>
		<layer id="376" name="bottleneck2_1/dim_inc/conv/fq_weights_1/Copy/out_high18978_const" type="Const" version="opset1">
			<data element_type="f16" offset="882" shape="1" size="2"/>
			<output>
				<port id="1" precision="FP16">
					<dim>1</dim>
				</port>
			</output>
		</layer>
		<layer id="377" name="72537257_const" type="Const" version="opset1">
			<data element_type="f16" offset="12050" shape="64,1,1,1" size="128"/>
			<output>
				<port id="1" precision="FP16">
					<dim>64</dim>
					<dim>1</dim>
					<dim>1</dim>
					<dim>1</dim>
				</port>
			</output>
		</layer>
		<layer id="378" name="72547258_const" type="Const" version="opset1">
			<data element_type="f16" offset="12178" shape="64,1,1,1" size="128"/>
			<output>
				<port id="1" precision="FP16">
					<dim>64</dim>
					<dim>1</dim>
					<dim>1</dim>
					<dim>1</dim>
				</port>
			</output>
		</layer>
		<layer id="379" name="bottleneck2_1/dim_inc/conv/fq_weights_1" type="FakeQuantize" version="opset1">
			<data levels="255"/>
			<input>
				<port id="0">
					<dim>64</dim>
					<dim>16</dim>
					<dim>1</dim>
					<dim>1</dim>
				</port>
				<port id="1">
					<dim>1</dim>
				</port>
				<port id="2">
					<dim>1</dim>
				</port>
				<port id="3">
					<dim>64</dim>
					<dim>1</dim>
					<dim>1</dim>
					<dim>1</dim>
				</port>
				<port id="4">
					<dim>64</dim>
					<dim>1</dim>
					<dim>1</dim>
					<dim>1</dim>
				</port>
			</input>
			<output>
				<port id="5" precision="FP16">
					<dim>64</dim>
					<dim>16</dim>
					<dim>1</dim>
					<dim>1</dim>
				</port>
			</output>
		</layer>
		<layer id="380" name="bottleneck2_1/dim_inc/conv" type="Convolution" version="opset1">
			<data dilations="1,1" output_padding="0,0" pads_begin="0,0" pads_end="0,0" strides="1,1"/>
			<input>
				<port id="0">
					<dim>1</dim>
					<dim>16</dim>
					<dim>100</dim>
					<dim>170</dim>
				</port>
				<port id="1">
					<dim>64</dim>
					<dim>16</dim>
					<dim>1</dim>
					<dim>1</dim>
				</port>
			</input>
			<output>
				<port id="2" precision="FP16">
					<dim>1</dim>
					<dim>64</dim>
					<dim>100</dim>
					<dim>170</dim>
				</port>
			</output>
		</layer>
		<layer id="381" name="data_add_4661646621/copy_const1504_const" type="Const" version="opset1">
			<data element_type="f16" offset="12306" shape="1,64,1,1" size="128"/>
			<output>
				<port id="1" precision="FP16">
					<dim>1</dim>
					<dim>64</dim>
					<dim>1</dim>
					<dim>1</dim>
				</port>
			</output>
		</layer>
		<layer id="382" name="bottleneck2_1/dim_inc/bn/variance/Fused_Add_" type="Add" version="opset1">
			<input>
				<port id="0">
					<dim>1</dim>
					<dim>64</dim>
					<dim>100</dim>
					<dim>170</dim>
				</port>
				<port id="1">
					<dim>1</dim>
					<dim>64</dim>
					<dim>1</dim>
					<dim>1</dim>
				</port>
			</input>
			<output>
				<port id="2" precision="FP16">
					<dim>1</dim>
					<dim>64</dim>
					<dim>100</dim>
					<dim>170</dim>
				</port>
			</output>
		</layer>
		<layer id="383" name="58315835_const" type="Const" version="opset1">
			<data element_type="f16" offset="12434" shape="" size="2"/>
			<output>
				<port id="1" precision="FP16"/>
			</output>
		</layer>
		<layer id="384" name="58325836_const" type="Const" version="opset1">
			<data element_type="f16" offset="12436" shape="" size="2"/>
			<output>
				<port id="1" precision="FP16"/>
			</output>
		</layer>
		<layer id="385" name="58335837_const" type="Const" version="opset1">
			<data element_type="f16" offset="12434" shape="" size="2"/>
			<output>
				<port id="1" precision="FP16"/>
			</output>
		</layer>
		<layer id="386" name="58345838_const" type="Const" version="opset1">
			<data element_type="f16" offset="12436" shape="" size="2"/>
			<output>
				<port id="1" precision="FP16"/>
			</output>
		</layer>
		<layer id="387" name="bottleneck2_1/add/fq_input_1" type="FakeQuantize" version="opset1">
			<data levels="256"/>
			<input>
				<port id="0">
					<dim>1</dim>
					<dim>64</dim>
					<dim>100</dim>
					<dim>170</dim>
				</port>
				<port id="1"/>
				<port id="2"/>
				<port id="3"/>
				<port id="4"/>
			</input>
			<output>
				<port id="5" precision="FP16">
					<dim>1</dim>
					<dim>64</dim>
					<dim>100</dim>
					<dim>170</dim>
				</port>
			</output>
		</layer>
		<layer id="388" name="bottleneck2_1/add" type="Add" version="opset1">
			<input>
				<port id="0">
					<dim>1</dim>
					<dim>64</dim>
					<dim>100</dim>
					<dim>170</dim>
				</port>
				<port id="1">
					<dim>1</dim>
					<dim>64</dim>
					<dim>100</dim>
					<dim>170</dim>
				</port>
			</input>
			<output>
				<port id="2" precision="FP16">
					<dim>1</dim>
					<dim>64</dim>
					<dim>100</dim>
					<dim>170</dim>
				</port>
			</output>
		</layer>
		<layer id="389" name="bottleneck2_1/fn60439/Cast_123475_const" type="Const" version="opset1">
			<data element_type="f32" offset="1386" shape="1" size="4"/>
			<output>
				<port id="1" precision="FP32">
					<dim>1</dim>
				</port>
			</output>
		</layer>
		<layer id="390" name="bottleneck2_1/fn60439" type="PReLU" version="opset1">
			<input>
				<port id="0">
					<dim>1</dim>
					<dim>64</dim>
					<dim>100</dim>
					<dim>170</dim>
				</port>
				<port id="1">
					<dim>1</dim>
				</port>
			</input>
			<output>
				<port id="2" precision="FP16">
					<dim>1</dim>
					<dim>64</dim>
					<dim>100</dim>
					<dim>170</dim>
				</port>
			</output>
		</layer>
		<layer id="391" name="89618965_const" type="Const" version="opset1">
			<data element_type="f16" offset="12438" shape="" size="2"/>
			<output>
				<port id="1" precision="FP16"/>
			</output>
		</layer>
		<layer id="392" name="89628966_const" type="Const" version="opset1">
			<data element_type="f16" offset="12440" shape="" size="2"/>
			<output>
				<port id="1" precision="FP16"/>
			</output>
		</layer>
		<layer id="393" name="89638967_const" type="Const" version="opset1">
			<data element_type="f16" offset="12438" shape="" size="2"/>
			<output>
				<port id="1" precision="FP16"/>
			</output>
		</layer>
		<layer id="394" name="89648968_const" type="Const" version="opset1">
			<data element_type="f16" offset="12440" shape="" size="2"/>
			<output>
				<port id="1" precision="FP16"/>
			</output>
		</layer>
		<layer id="395" name="bottleneck2_2/add/fq_input_0" type="FakeQuantize" version="opset1">
			<data levels="256"/>
			<input>
				<port id="0">
					<dim>1</dim>
					<dim>64</dim>
					<dim>100</dim>
					<dim>170</dim>
				</port>
				<port id="1"/>
				<port id="2"/>
				<port id="3"/>
				<port id="4"/>
			</input>
			<output>
				<port id="5" precision="FP16">
					<dim>1</dim>
					<dim>64</dim>
					<dim>100</dim>
					<dim>170</dim>
				</port>
			</output>
		</layer>
		<layer id="396" name="bottleneck2_2/dim_red/conv/fq_weights_1/Convert_to_float/Cast_022861_const" type="Const" version="opset1">
			<data element_type="u8" offset="12442" shape="16,64,1,1" size="1024"/>
			<output>
				<port id="1" precision="U8">
					<dim>16</dim>
					<dim>64</dim>
					<dim>1</dim>
					<dim>1</dim>
				</port>
			</output>
		</layer>
		<layer id="397" name="bottleneck2_2/dim_red/conv/fq_weights_1/Convert_to_float" type="Convert" version="opset1">
			<data destination_type="f16"/>
			<input>
				<port id="0">
					<dim>16</dim>
					<dim>64</dim>
					<dim>1</dim>
					<dim>1</dim>
				</port>
			</input>
			<output>
				<port id="1" precision="FP16">
					<dim>16</dim>
					<dim>64</dim>
					<dim>1</dim>
					<dim>1</dim>
				</port>
			</output>
		</layer>
		<layer id="398" name="bottleneck2_2/dim_red/conv/fq_weights_1/Copy/out_low19673_const" type="Const" version="opset1">
			<data element_type="f16" offset="1336" shape="1" size="2"/>
			<output>
				<port id="1" precision="FP16">
					<dim>1</dim>
				</port>
			</output>
		</layer>
		<layer id="399" name="bottleneck2_2/dim_red/conv/fq_weights_1/Copy/out_high19674_const" type="Const" version="opset1">
			<data element_type="f16" offset="882" shape="1" size="2"/>
			<output>
				<port id="1" precision="FP16">
					<dim>1</dim>
				</port>
			</output>
		</layer>
		<layer id="400" name="50135017_const" type="Const" version="opset1">
			<data element_type="f16" offset="13466" shape="16,1,1,1" size="32"/>
			<output>
				<port id="1" precision="FP16">
					<dim>16</dim>
					<dim>1</dim>
					<dim>1</dim>
					<dim>1</dim>
				</port>
			</output>
		</layer>
		<layer id="401" name="50145018_const" type="Const" version="opset1">
			<data element_type="f16" offset="13498" shape="16,1,1,1" size="32"/>
			<output>
				<port id="1" precision="FP16">
					<dim>16</dim>
					<dim>1</dim>
					<dim>1</dim>
					<dim>1</dim>
				</port>
			</output>
		</layer>
		<layer id="402" name="bottleneck2_2/dim_red/conv/fq_weights_1" type="FakeQuantize" version="opset1">
			<data levels="255"/>
			<input>
				<port id="0">
					<dim>16</dim>
					<dim>64</dim>
					<dim>1</dim>
					<dim>1</dim>
				</port>
				<port id="1">
					<dim>1</dim>
				</port>
				<port id="2">
					<dim>1</dim>
				</port>
				<port id="3">
					<dim>16</dim>
					<dim>1</dim>
					<dim>1</dim>
					<dim>1</dim>
				</port>
				<port id="4">
					<dim>16</dim>
					<dim>1</dim>
					<dim>1</dim>
					<dim>1</dim>
				</port>
			</input>
			<output>
				<port id="5" precision="FP16">
					<dim>16</dim>
					<dim>64</dim>
					<dim>1</dim>
					<dim>1</dim>
				</port>
			</output>
		</layer>
		<layer id="403" name="bottleneck2_2/dim_red/conv" type="Convolution" version="opset1">
			<data dilations="1,1" output_padding="0,0" pads_begin="0,0" pads_end="0,0" strides="1,1"/>
			<input>
				<port id="0">
					<dim>1</dim>
					<dim>64</dim>
					<dim>100</dim>
					<dim>170</dim>
				</port>
				<port id="1">
					<dim>16</dim>
					<dim>64</dim>
					<dim>1</dim>
					<dim>1</dim>
				</port>
			</input>
			<output>
				<port id="2" precision="FP16">
					<dim>1</dim>
					<dim>16</dim>
					<dim>100</dim>
					<dim>170</dim>
				</port>
			</output>
		</layer>
		<layer id="404" name="data_add_4662446629/copy_const1511_const" type="Const" version="opset1">
			<data element_type="f16" offset="13530" shape="1,16,1,1" size="32"/>
			<output>
				<port id="1" precision="FP16">
					<dim>1</dim>
					<dim>16</dim>
					<dim>1</dim>
					<dim>1</dim>
				</port>
			</output>
		</layer>
		<layer id="405" name="bottleneck2_2/dim_red/bn/variance/Fused_Add_" type="Add" version="opset1">
			<input>
				<port id="0">
					<dim>1</dim>
					<dim>16</dim>
					<dim>100</dim>
					<dim>170</dim>
				</port>
				<port id="1">
					<dim>1</dim>
					<dim>16</dim>
					<dim>1</dim>
					<dim>1</dim>
				</port>
			</input>
			<output>
				<port id="2" precision="FP16">
					<dim>1</dim>
					<dim>16</dim>
					<dim>100</dim>
					<dim>170</dim>
				</port>
			</output>
		</layer>
		<layer id="406" name="bottleneck2_2/dim_red/fn60643/Cast_123297_const" type="Const" version="opset1">
			<data element_type="f32" offset="1386" shape="1" size="4"/>
			<output>
				<port id="1" precision="FP32">
					<dim>1</dim>
				</port>
			</output>
		</layer>
		<layer id="407" name="bottleneck2_2/dim_red/fn60643" type="PReLU" version="opset1">
			<input>
				<port id="0">
					<dim>1</dim>
					<dim>16</dim>
					<dim>100</dim>
					<dim>170</dim>
				</port>
				<port id="1">
					<dim>1</dim>
				</port>
			</input>
			<output>
				<port id="2" precision="FP16">
					<dim>1</dim>
					<dim>16</dim>
					<dim>100</dim>
					<dim>170</dim>
				</port>
			</output>
		</layer>
		<layer id="408" name="1008110085_const" type="Const" version="opset1">
			<data element_type="f16" offset="13562" shape="1,16,1,1" size="32"/>
			<output>
				<port id="1" precision="FP16">
					<dim>1</dim>
					<dim>16</dim>
					<dim>1</dim>
					<dim>1</dim>
				</port>
			</output>
		</layer>
		<layer id="409" name="1008210086_const" type="Const" version="opset1">
			<data element_type="f16" offset="13594" shape="1,16,1,1" size="32"/>
			<output>
				<port id="1" precision="FP16">
					<dim>1</dim>
					<dim>16</dim>
					<dim>1</dim>
					<dim>1</dim>
				</port>
			</output>
		</layer>
		<layer id="410" name="1008310087_const" type="Const" version="opset1">
			<data element_type="f16" offset="13562" shape="1,16,1,1" size="32"/>
			<output>
				<port id="1" precision="FP16">
					<dim>1</dim>
					<dim>16</dim>
					<dim>1</dim>
					<dim>1</dim>
				</port>
			</output>
		</layer>
		<layer id="411" name="1008410088_const" type="Const" version="opset1">
			<data element_type="f16" offset="13594" shape="1,16,1,1" size="32"/>
			<output>
				<port id="1" precision="FP16">
					<dim>1</dim>
					<dim>16</dim>
					<dim>1</dim>
					<dim>1</dim>
				</port>
			</output>
		</layer>
		<layer id="412" name="bottleneck2_2/inner/dw1/conv/fq_input_0" type="FakeQuantize" version="opset1">
			<data levels="256"/>
			<input>
				<port id="0">
					<dim>1</dim>
					<dim>16</dim>
					<dim>100</dim>
					<dim>170</dim>
				</port>
				<port id="1">
					<dim>1</dim>
					<dim>16</dim>
					<dim>1</dim>
					<dim>1</dim>
				</port>
				<port id="2">
					<dim>1</dim>
					<dim>16</dim>
					<dim>1</dim>
					<dim>1</dim>
				</port>
				<port id="3">
					<dim>1</dim>
					<dim>16</dim>
					<dim>1</dim>
					<dim>1</dim>
				</port>
				<port id="4">
					<dim>1</dim>
					<dim>16</dim>
					<dim>1</dim>
					<dim>1</dim>
				</port>
			</input>
			<output>
				<port id="5" precision="FP16">
					<dim>1</dim>
					<dim>16</dim>
					<dim>100</dim>
					<dim>170</dim>
				</port>
			</output>
		</layer>
		<layer id="413" name="bottleneck2_2/inner/dw1/conv/fq_weights_1/Convert_to_float/Cast_022975_const" type="Const" version="opset1">
			<data element_type="u8" offset="13626" shape="16,1,3,3" size="144"/>
			<output>
				<port id="1" precision="U8">
					<dim>16</dim>
					<dim>1</dim>
					<dim>3</dim>
					<dim>3</dim>
				</port>
			</output>
		</layer>
		<layer id="414" name="bottleneck2_2/inner/dw1/conv/fq_weights_1/Convert_to_float" type="Convert" version="opset1">
			<data destination_type="f16"/>
			<input>
…
		<edge from-layer="3549" from-port="1" to-layer="3551" to-port="3"/>
		<edge from-layer="3550" from-port="1" to-layer="3551" to-port="4"/>
		<edge from-layer="3551" from-port="5" to-layer="3553" to-port="0"/>
		<edge from-layer="3552" from-port="1" to-layer="3553" to-port="1"/>
		<edge from-layer="3544" from-port="5" to-layer="3554" to-port="0"/>
		<edge from-layer="3553" from-port="2" to-layer="3554" to-port="1"/>
		<edge from-layer="3554" from-port="2" to-layer="3556" to-port="0"/>
		<edge from-layer="3555" from-port="1" to-layer="3556" to-port="1"/>
		<edge from-layer="3556" from-port="2" to-layer="3558" to-port="0"/>
		<edge from-layer="3557" from-port="1" to-layer="3558" to-port="1"/>
		<edge from-layer="3558" from-port="2" to-layer="3563" to-port="0"/>
		<edge from-layer="3559" from-port="1" to-layer="3563" to-port="1"/>
		<edge from-layer="3560" from-port="1" to-layer="3563" to-port="2"/>
		<edge from-layer="3561" from-port="1" to-layer="3563" to-port="3"/>
		<edge from-layer="3562" from-port="1" to-layer="3563" to-port="4"/>
		<edge from-layer="3564" from-port="1" to-layer="3565" to-port="0"/>
		<edge from-layer="3565" from-port="1" to-layer="3570" to-port="0"/>
		<edge from-layer="3566" from-port="1" to-layer="3570" to-port="1"/>
		<edge from-layer="3567" from-port="1" to-layer="3570" to-port="2"/>
		<edge from-layer="3568" from-port="1" to-layer="3570" to-port="3"/>
		<edge from-layer="3569" from-port="1" to-layer="3570" to-port="4"/>
		<edge from-layer="3563" from-port="5" to-layer="3571" to-port="0"/>
		<edge from-layer="3570" from-port="5" to-layer="3571" to-port="1"/>
		<edge from-layer="3571" from-port="2" to-layer="3573" to-port="0"/>
		<edge from-layer="3572" from-port="1" to-layer="3573" to-port="1"/>
		<edge from-layer="3573" from-port="2" to-layer="3578" to-port="0"/>
		<edge from-layer="3574" from-port="1" to-layer="3578" to-port="1"/>
		<edge from-layer="3575" from-port="1" to-layer="3578" to-port="2"/>
		<edge from-layer="3576" from-port="1" to-layer="3578" to-port="3"/>
		<edge from-layer="3577" from-port="1" to-layer="3578" to-port="4"/>
		<edge from-layer="3527" from-port="5" to-layer="3579" to-port="0"/>
		<edge from-layer="3578" from-port="5" to-layer="3579" to-port="1"/>
		<edge from-layer="3579" from-port="2" to-layer="3581" to-port="0"/>
		<edge from-layer="3580" from-port="1" to-layer="3581" to-port="1"/>
		<edge from-layer="3581" from-port="2" to-layer="3586" to-port="0"/>
		<edge from-layer="3582" from-port="1" to-layer="3586" to-port="1"/>
		<edge from-layer="3583" from-port="1" to-layer="3586" to-port="2"/>
		<edge from-layer="3584" from-port="1" to-layer="3586" to-port="3"/>
		<edge from-layer="3585" from-port="1" to-layer="3586" to-port="4"/>
		<edge from-layer="3587" from-port="1" to-layer="3588" to-port="0"/>
		<edge from-layer="3588" from-port="1" to-layer="3593" to-port="0"/>
		<edge from-layer="3589" from-port="1" to-layer="3593" to-port="1"/>
		<edge from-layer="3590" from-port="1" to-layer="3593" to-port="2"/>
		<edge from-layer="3591" from-port="1" to-layer="3593" to-port="3"/>
		<edge from-layer="3592" from-port="1" to-layer="3593" to-port="4"/>
		<edge from-layer="3586" from-port="5" to-layer="3594" to-port="0"/>
		<edge from-layer="3593" from-port="5" to-layer="3594" to-port="1"/>
		<edge from-layer="3594" from-port="2" to-layer="3596" to-port="0"/>
		<edge from-layer="3595" from-port="1" to-layer="3596" to-port="1"/>
		<edge from-layer="3596" from-port="2" to-layer="3598" to-port="0"/>
		<edge from-layer="3597" from-port="1" to-layer="3598" to-port="1"/>
		<edge from-layer="3598" from-port="2" to-layer="3603" to-port="0"/>
		<edge from-layer="3599" from-port="1" to-layer="3603" to-port="1"/>
		<edge from-layer="3600" from-port="1" to-layer="3603" to-port="2"/>
		<edge from-layer="3601" from-port="1" to-layer="3603" to-port="3"/>
		<edge from-layer="3602" from-port="1" to-layer="3603" to-port="4"/>
		<edge from-layer="3604" from-port="1" to-layer="3605" to-port="0"/>
		<edge from-layer="3605" from-port="1" to-layer="3610" to-port="0"/>
		<edge from-layer="3606" from-port="1" to-layer="3610" to-port="1"/>
		<edge from-layer="3607" from-port="1" to-layer="3610" to-port="2"/>
		<edge from-layer="3608" from-port="1" to-layer="3610" to-port="3"/>
		<edge from-layer="3609" from-port="1" to-layer="3610" to-port="4"/>
		<edge from-layer="3610" from-port="5" to-layer="3612" to-port="0"/>
		<edge from-layer="3611" from-port="1" to-layer="3612" to-port="1"/>
		<edge from-layer="3603" from-port="5" to-layer="3613" to-port="0"/>
		<edge from-layer="3612" from-port="2" to-layer="3613" to-port="1"/>
		<edge from-layer="3613" from-port="2" to-layer="3615" to-port="0"/>
		<edge from-layer="3614" from-port="1" to-layer="3615" to-port="1"/>
		<edge from-layer="3615" from-port="2" to-layer="3617" to-port="0"/>
		<edge from-layer="3616" from-port="1" to-layer="3617" to-port="1"/>
		<edge from-layer="3617" from-port="2" to-layer="3622" to-port="0"/>
		<edge from-layer="3618" from-port="1" to-layer="3622" to-port="1"/>
		<edge from-layer="3619" from-port="1" to-layer="3622" to-port="2"/>
		<edge from-layer="3620" from-port="1" to-layer="3622" to-port="3"/>
		<edge from-layer="3621" from-port="1" to-layer="3622" to-port="4"/>
		<edge from-layer="3623" from-port="1" to-layer="3624" to-port="0"/>
		<edge from-layer="3624" from-port="1" to-layer="3629" to-port="0"/>
		<edge from-layer="3625" from-port="1" to-layer="3629" to-port="1"/>
		<edge from-layer="3626" from-port="1" to-layer="3629" to-port="2"/>
		<edge from-layer="3627" from-port="1" to-layer="3629" to-port="3"/>
		<edge from-layer="3628" from-port="1" to-layer="3629" to-port="4"/>
		<edge from-layer="3622" from-port="5" to-layer="3630" to-port="0"/>
		<edge from-layer="3629" from-port="5" to-layer="3630" to-port="1"/>
		<edge from-layer="3630" from-port="2" to-layer="3632" to-port="0"/>
		<edge from-layer="3631" from-port="1" to-layer="3632" to-port="1"/>
		<edge from-layer="3632" from-port="2" to-layer="3637" to-port="0"/>
		<edge from-layer="3633" from-port="1" to-layer="3637" to-port="1"/>
		<edge from-layer="3634" from-port="1" to-layer="3637" to-port="2"/>
		<edge from-layer="3635" from-port="1" to-layer="3637" to-port="3"/>
		<edge from-layer="3636" from-port="1" to-layer="3637" to-port="4"/>
		<edge from-layer="3586" from-port="5" to-layer="3638" to-port="0"/>
		<edge from-layer="3637" from-port="5" to-layer="3638" to-port="1"/>
		<edge from-layer="3638" from-port="2" to-layer="3640" to-port="0"/>
		<edge from-layer="3639" from-port="1" to-layer="3640" to-port="1"/>
		<edge from-layer="3640" from-port="2" to-layer="3645" to-port="0"/>
		<edge from-layer="3641" from-port="1" to-layer="3645" to-port="1"/>
		<edge from-layer="3642" from-port="1" to-layer="3645" to-port="2"/>
		<edge from-layer="3643" from-port="1" to-layer="3645" to-port="3"/>
		<edge from-layer="3644" from-port="1" to-layer="3645" to-port="4"/>
		<edge from-layer="3646" from-port="1" to-layer="3647" to-port="0"/>
		<edge from-layer="3647" from-port="1" to-layer="3652" to-port="0"/>
		<edge from-layer="3648" from-port="1" to-layer="3652" to-port="1"/>
		<edge from-layer="3649" from-port="1" to-layer="3652" to-port="2"/>
		<edge from-layer="3650" from-port="1" to-layer="3652" to-port="3"/>
		<edge from-layer="3651" from-port="1" to-layer="3652" to-port="4"/>
		<edge from-layer="3645" from-port="5" to-layer="3653" to-port="0"/>
		<edge from-layer="3652" from-port="5" to-layer="3653" to-port="1"/>
		<edge from-layer="3653" from-port="2" to-layer="3655" to-port="0"/>
		<edge from-layer="3654" from-port="1" to-layer="3655" to-port="1"/>
		<edge from-layer="3655" from-port="2" to-layer="3657" to-port="0"/>
		<edge from-layer="3656" from-port="1" to-layer="3657" to-port="1"/>
		<edge from-layer="3657" from-port="2" to-layer="3662" to-port="0"/>
		<edge from-layer="3658" from-port="1" to-layer="3662" to-port="1"/>
		<edge from-layer="3659" from-port="1" to-layer="3662" to-port="2"/>
		<edge from-layer="3660" from-port="1" to-layer="3662" to-port="3"/>
		<edge from-layer="3661" from-port="1" to-layer="3662" to-port="4"/>
		<edge from-layer="3663" from-port="1" to-layer="3664" to-port="0"/>
		<edge from-layer="3664" from-port="1" to-layer="3669" to-port="0"/>
		<edge from-layer="3665" from-port="1" to-layer="3669" to-port="1"/>
		<edge from-layer="3666" from-port="1" to-layer="3669" to-port="2"/>
		<edge from-layer="3667" from-port="1" to-layer="3669" to-port="3"/>
		<edge from-layer="3668" from-port="1" to-layer="3669" to-port="4"/>
		<edge from-layer="3669" from-port="5" to-layer="3671" to-port="0"/>
		<edge from-layer="3670" from-port="1" to-layer="3671" to-port="1"/>
		<edge from-layer="3662" from-port="5" to-layer="3672" to-port="0"/>
		<edge from-layer="3671" from-port="2" to-layer="3672" to-port="1"/>
		<edge from-layer="3672" from-port="2" to-layer="3674" to-port="0"/>
		<edge from-layer="3673" from-port="1" to-layer="3674" to-port="1"/>
		<edge from-layer="3674" from-port="2" to-layer="3676" to-port="0"/>
		<edge from-layer="3675" from-port="1" to-layer="3676" to-port="1"/>
		<edge from-layer="3676" from-port="2" to-layer="3681" to-port="0"/>
		<edge from-layer="3677" from-port="1" to-layer="3681" to-port="1"/>
		<edge from-layer="3678" from-port="1" to-layer="3681" to-port="2"/>
		<edge from-layer="3679" from-port="1" to-layer="3681" to-port="3"/>
		<edge from-layer="3680" from-port="1" to-layer="3681" to-port="4"/>
		<edge from-layer="3682" from-port="1" to-layer="3683" to-port="0"/>
		<edge from-layer="3683" from-port="1" to-layer="3688" to-port="0"/>
		<edge from-layer="3684" from-port="1" to-layer="3688" to-port="1"/>
		<edge from-layer="3685" from-port="1" to-layer="3688" to-port="2"/>
		<edge from-layer="3686" from-port="1" to-layer="3688" to-port="3"/>
		<edge from-layer="3687" from-port="1" to-layer="3688" to-port="4"/>
		<edge from-layer="3681" from-port="5" to-layer="3689" to-port="0"/>
		<edge from-layer="3688" from-port="5" to-layer="3689" to-port="1"/>
		<edge from-layer="3689" from-port="2" to-layer="3691" to-port="0"/>
		<edge from-layer="3690" from-port="1" to-layer="3691" to-port="1"/>
		<edge from-layer="3691" from-port="2" to-layer="3696" to-port="0"/>
		<edge from-layer="3692" from-port="1" to-layer="3696" to-port="1"/>
		<edge from-layer="3693" from-port="1" to-layer="3696" to-port="2"/>
		<edge from-layer="3694" from-port="1" to-layer="3696" to-port="3"/>
		<edge from-layer="3695" from-port="1" to-layer="3696" to-port="4"/>
		<edge from-layer="3645" from-port="5" to-layer="3697" to-port="0"/>
		<edge from-layer="3696" from-port="5" to-layer="3697" to-port="1"/>
		<edge from-layer="3697" from-port="2" to-layer="3699" to-port="0"/>
		<edge from-layer="3698" from-port="1" to-layer="3699" to-port="1"/>
		<edge from-layer="3699" from-port="2" to-layer="3704" to-port="0"/>
		<edge from-layer="3700" from-port="1" to-layer="3704" to-port="1"/>
		<edge from-layer="3701" from-port="1" to-layer="3704" to-port="2"/>
		<edge from-layer="3702" from-port="1" to-layer="3704" to-port="3"/>
		<edge from-layer="3703" from-port="1" to-layer="3704" to-port="4"/>
		<edge from-layer="3705" from-port="1" to-layer="3706" to-port="0"/>
		<edge from-layer="3706" from-port="1" to-layer="3711" to-port="0"/>
		<edge from-layer="3707" from-port="1" to-layer="3711" to-port="1"/>
		<edge from-layer="3708" from-port="1" to-layer="3711" to-port="2"/>
		<edge from-layer="3709" from-port="1" to-layer="3711" to-port="3"/>
		<edge from-layer="3710" from-port="1" to-layer="3711" to-port="4"/>
		<edge from-layer="3704" from-port="5" to-layer="3712" to-port="0"/>
		<edge from-layer="3711" from-port="5" to-layer="3712" to-port="1"/>
		<edge from-layer="3712" from-port="2" to-layer="3714" to-port="0"/>
		<edge from-layer="3713" from-port="1" to-layer="3714" to-port="1"/>
		<edge from-layer="3714" from-port="2" to-layer="3716" to-port="0"/>
		<edge from-layer="3715" from-port="1" to-layer="3716" to-port="1"/>
		<edge from-layer="3716" from-port="2" to-layer="3718" to-port="0"/>
		<edge from-layer="3717" from-port="1" to-layer="3718" to-port="1"/>
		<edge from-layer="3718" from-port="2" to-layer="3723" to-port="0"/>
		<edge from-layer="3719" from-port="1" to-layer="3723" to-port="1"/>
		<edge from-layer="3720" from-port="1" to-layer="3723" to-port="2"/>
		<edge from-layer="3721" from-port="1" to-layer="3723" to-port="3"/>
		<edge from-layer="3722" from-port="1" to-layer="3723" to-port="4"/>
		<edge from-layer="2269" from-port="5" to-layer="3724" to-port="0"/>
		<edge from-layer="3723" from-port="5" to-layer="3724" to-port="1"/>
		<edge from-layer="3725" from-port="1" to-layer="3726" to-port="0"/>
		<edge from-layer="3726" from-port="1" to-layer="3731" to-port="0"/>
		<edge from-layer="3727" from-port="1" to-layer="3731" to-port="1"/>
		<edge from-layer="3728" from-port="1" to-layer="3731" to-port="2"/>
		<edge from-layer="3729" from-port="1" to-layer="3731" to-port="3"/>
		<edge from-layer="3730" from-port="1" to-layer="3731" to-port="4"/>
		<edge from-layer="3724" from-port="2" to-layer="3732" to-port="0"/>
		<edge from-layer="3731" from-port="5" to-layer="3732" to-port="1"/>
		<edge from-layer="3732" from-port="2" to-layer="3734" to-port="0"/>
		<edge from-layer="3733" from-port="1" to-layer="3734" to-port="1"/>
		<edge from-layer="3734" from-port="2" to-layer="3736" to-port="0"/>
		<edge from-layer="3735" from-port="1" to-layer="3736" to-port="1"/>
		<edge from-layer="3736" from-port="2" to-layer="3741" to-port="0"/>
		<edge from-layer="3737" from-port="1" to-layer="3741" to-port="1"/>
		<edge from-layer="3738" from-port="1" to-layer="3741" to-port="2"/>
		<edge from-layer="3739" from-port="1" to-layer="3741" to-port="3"/>
		<edge from-layer="3740" from-port="1" to-layer="3741" to-port="4"/>
		<edge from-layer="3742" from-port="1" to-layer="3743" to-port="0"/>
		<edge from-layer="3743" from-port="1" to-layer="3748" to-port="0"/>
		<edge from-layer="3744" from-port="1" to-layer="3748" to-port="1"/>
		<edge from-layer="3745" from-port="1" to-layer="3748" to-port="2"/>
		<edge from-layer="3746" from-port="1" to-layer="3748" to-port="3"/>
		<edge from-layer="3747" from-port="1" to-layer="3748" to-port="4"/>
		<edge from-layer="3741" from-port="5" to-layer="3749" to-port="0"/>
		<edge from-layer="3748" from-port="5" to-layer="3749" to-port="1"/>
		<edge from-layer="3749" from-port="2" to-layer="3751" to-port="0"/>
		<edge from-layer="3750" from-port="1" to-layer="3751" to-port="1"/>
		<edge from-layer="3751" from-port="2" to-layer="3753" to-port="0"/>
		<edge from-layer="3752" from-port="1" to-layer="3753" to-port="1"/>
		<edge from-layer="3753" from-port="2" to-layer="3758" to-port="0"/>
		<edge from-layer="3754" from-port="1" to-layer="3758" to-port="1"/>
		<edge from-layer="3755" from-port="1" to-layer="3758" to-port="2"/>
		<edge from-layer="3756" from-port="1" to-layer="3758" to-port="3"/>
		<edge from-layer="3757" from-port="1" to-layer="3758" to-port="4"/>
		<edge from-layer="3759" from-port="1" to-layer="3760" to-port="0"/>
		<edge from-layer="3760" from-port="1" to-layer="3765" to-port="0"/>
		<edge from-layer="3761" from-port="1" to-layer="3765" to-port="1"/>
		<edge from-layer="3762" from-port="1" to-layer="3765" to-port="2"/>
		<edge from-layer="3763" from-port="1" to-layer="3765" to-port="3"/>
		<edge from-layer="3764" from-port="1" to-layer="3765" to-port="4"/>
		<edge from-layer="3758" from-port="5" to-layer="3766" to-port="0"/>
		<edge from-layer="3765" from-port="5" to-layer="3766" to-port="1"/>
		<edge from-layer="3766" from-port="2" to-layer="3768" to-port="0"/>
		<edge from-layer="3767" from-port="1" to-layer="3768" to-port="1"/>
		<edge from-layer="3768" from-port="2" to-layer="3770" to-port="0"/>
		<edge from-layer="3769" from-port="1" to-layer="3770" to-port="1"/>
		<edge from-layer="3770" from-port="2" to-layer="3772" to-port="0"/>
		<edge from-layer="3771" from-port="1" to-layer="3772" to-port="1"/>
		<edge from-layer="3772" from-port="2" to-layer="3777" to-port="0"/>
		<edge from-layer="3773" from-port="1" to-layer="3777" to-port="1"/>
		<edge from-layer="3774" from-port="1" to-layer="3777" to-port="2"/>
		<edge from-layer="3775" from-port="1" to-layer="3777" to-port="3"/>
		<edge from-layer="3776" from-port="1" to-layer="3777" to-port="4"/>
		<edge from-layer="3778" from-port="1" to-layer="3779" to-port="0"/>
		<edge from-layer="3779" from-port="1" to-layer="3784" to-port="0"/>
		<edge from-layer="3780" from-port="1" to-layer="3784" to-port="1"/>
		<edge from-layer="3781" from-port="1" to-layer="3784" to-port="2"/>
		<edge from-layer="3782" from-port="1" to-layer="3784" to-port="3"/>
		<edge from-layer="3783" from-port="1" to-layer="3784" to-port="4"/>
		<edge from-layer="3777" from-port="5" to-layer="3785" to-port="0"/>
		<edge from-layer="3784" from-port="5" to-layer="3785" to-port="1"/>
		<edge from-layer="3785" from-port="2" to-layer="3787" to-port="0"/>
		<edge from-layer="3786" from-port="1" to-layer="3787" to-port="1"/>
		<edge from-layer="3787" from-port="2" to-layer="3789" to-port="0"/>
		<edge from-layer="3788" from-port="1" to-layer="3789" to-port="1"/>
		<edge from-layer="3789" from-port="2" to-layer="3790" to-port="0"/>
		<edge from-layer="3791" from-port="1" to-layer="3792" to-port="0"/>
		<edge from-layer="3792" from-port="1" to-layer="3797" to-port="0"/>
		<edge from-layer="3793" from-port="1" to-layer="3797" to-port="1"/>
		<edge from-layer="3794" from-port="1" to-layer="3797" to-port="2"/>
		<edge from-layer="3795" from-port="1" to-layer="3797" to-port="3"/>
		<edge from-layer="3796" from-port="1" to-layer="3797" to-port="4"/>
		<edge from-layer="2215" from-port="5" to-layer="3798" to-port="0"/>
		<edge from-layer="3797" from-port="5" to-layer="3798" to-port="1"/>
		<edge from-layer="3798" from-port="2" to-layer="3800" to-port="0"/>
		<edge from-layer="3799" from-port="1" to-layer="3800" to-port="1"/>
		<edge from-layer="3800" from-port="2" to-layer="3802" to-port="0"/>
		<edge from-layer="3801" from-port="1" to-layer="3802" to-port="1"/>
		<edge from-layer="3802" from-port="2" to-layer="3804" to-port="0"/>
		<edge from-layer="3803" from-port="1" to-layer="3804" to-port="1"/>
		<edge from-layer="3804" from-port="2" to-layer="3809" to-port="0"/>
		<edge from-layer="3805" from-port="1" to-layer="3809" to-port="1"/>
		<edge from-layer="3806" from-port="1" to-layer="3809" to-port="2"/>
		<edge from-layer="3807" from-port="1" to-layer="3809" to-port="3"/>
		<edge from-layer="3808" from-port="1" to-layer="3809" to-port="4"/>
		<edge from-layer="3810" from-port="1" to-layer="3811" to-port="0"/>
		<edge from-layer="3811" from-port="1" to-layer="3816" to-port="0"/>
		<edge from-layer="3812" from-port="1" to-layer="3816" to-port="1"/>
		<edge from-layer="3813" from-port="1" to-layer="3816" to-port="2"/>
		<edge from-layer="3814" from-port="1" to-layer="3816" to-port="3"/>
		<edge from-layer="3815" from-port="1" to-layer="3816" to-port="4"/>
		<edge from-layer="3704" from-port="5" to-layer="3817" to-port="0"/>
		<edge from-layer="3816" from-port="5" to-layer="3817" to-port="1"/>
		<edge from-layer="3817" from-port="2" to-layer="3819" to-port="0"/>
		<edge from-layer="3818" from-port="1" to-layer="3819" to-port="1"/>
		<edge from-layer="3819" from-port="2" to-layer="3821" to-port="0"/>
		<edge from-layer="3820" from-port="1" to-layer="3821" to-port="1"/>
		<edge from-layer="3821" from-port="2" to-layer="3823" to-port="0"/>
		<edge from-layer="3822" from-port="1" to-layer="3823" to-port="1"/>
		<edge from-layer="3823" from-port="2" to-layer="3828" to-port="0"/>
		<edge from-layer="3824" from-port="1" to-layer="3828" to-port="1"/>
		<edge from-layer="3825" from-port="1" to-layer="3828" to-port="2"/>
		<edge from-layer="3826" from-port="1" to-layer="3828" to-port="3"/>
		<edge from-layer="3827" from-port="1" to-layer="3828" to-port="4"/>
		<edge from-layer="3809" from-port="5" to-layer="3829" to-port="0"/>
		<edge from-layer="3828" from-port="5" to-layer="3829" to-port="1"/>
		<edge from-layer="3830" from-port="1" to-layer="3831" to-port="0"/>
		<edge from-layer="3831" from-port="1" to-layer="3836" to-port="0"/>
		<edge from-layer="3832" from-port="1" to-layer="3836" to-port="1"/>
		<edge from-layer="3833" from-port="1" to-layer="3836" to-port="2"/>
		<edge from-layer="3834" from-port="1" to-layer="3836" to-port="3"/>
		<edge from-layer="3835" from-port="1" to-layer="3836" to-port="4"/>
		<edge from-layer="3829" from-port="2" to-layer="3837" to-port="0"/>
		<edge from-layer="3836" from-port="5" to-layer="3837" to-port="1"/>
		<edge from-layer="3837" from-port="2" to-layer="3839" to-port="0"/>
		<edge from-layer="3838" from-port="1" to-layer="3839" to-port="1"/>
		<edge from-layer="3839" from-port="2" to-layer="3841" to-port="0"/>
		<edge from-layer="3840" from-port="1" to-layer="3841" to-port="1"/>
		<edge from-layer="3841" from-port="2" to-layer="3846" to-port="0"/>
		<edge from-layer="3842" from-port="1" to-layer="3846" to-port="1"/>
		<edge from-layer="3843" from-port="1" to-layer="3846" to-port="2"/>
		<edge from-layer="3844" from-port="1" to-layer="3846" to-port="3"/>
		<edge from-layer="3845" from-port="1" to-layer="3846" to-port="4"/>
		<edge from-layer="3847" from-port="1" to-layer="3848" to-port="0"/>
		<edge from-layer="3848" from-port="1" to-layer="3853" to-port="0"/>
		<edge from-layer="3849" from-port="1" to-layer="3853" to-port="1"/>
		<edge from-layer="3850" from-port="1" to-layer="3853" to-port="2"/>
		<edge from-layer="3851" from-port="1" to-layer="3853" to-port="3"/>
		<edge from-layer="3852" from-port="1" to-layer="3853" to-port="4"/>
		<edge from-layer="3846" from-port="5" to-layer="3854" to-port="0"/>
		<edge from-layer="3853" from-port="5" to-layer="3854" to-port="1"/>
		<edge from-layer="3854" from-port="2" to-layer="3856" to-port="0"/>
		<edge from-layer="3855" from-port="1" to-layer="3856" to-port="1"/>
		<edge from-layer="3856" from-port="2" to-layer="3858" to-port="0"/>
		<edge from-layer="3857" from-port="1" to-layer="3858" to-port="1"/>
		<edge from-layer="3858" from-port="2" to-layer="3863" to-port="0"/>
		<edge from-layer="3859" from-port="1" to-layer="3863" to-port="1"/>
		<edge from-layer="3860" from-port="1" to-layer="3863" to-port="2"/>
		<edge from-layer="3861" from-port="1" to-layer="3863" to-port="3"/>
		<edge from-layer="3862" from-port="1" to-layer="3863" to-port="4"/>
		<edge from-layer="3864" from-port="1" to-layer="3865" to-port="0"/>
		<edge from-layer="3865" from-port="1" to-layer="3870" to-port="0"/>
		<edge from-layer="3866" from-port="1" to-layer="3870" to-port="1"/>
		<edge from-layer="3867" from-port="1" to-layer="3870" to-port="2"/>
		<edge from-layer="3868" from-port="1" to-layer="3870" to-port="3"/>
		<edge from-layer="3869" from-port="1" to-layer="3870" to-port="4"/>
		<edge from-layer="3863" from-port="5" to-layer="3871" to-port="0"/>
		<edge from-layer="3870" from-port="5" to-layer="3871" to-port="1"/>
		<edge from-layer="3871" from-port="2" to-layer="3873" to-port="0"/>
		<edge from-layer="3872" from-port="1" to-layer="3873" to-port="1"/>
		<edge from-layer="3873" from-port="2" to-layer="3875" to-port="0"/>
		<edge from-layer="3874" from-port="1" to-layer="3875" to-port="1"/>
		<edge from-layer="3875" from-port="2" to-layer="3877" to-port="0"/>
		<edge from-layer="3876" from-port="1" to-layer="3877" to-port="1"/>
		<edge from-layer="3877" from-port="2" to-layer="3882" to-port="0"/>
		<edge from-layer="3878" from-port="1" to-layer="3882" to-port="1"/>
		<edge from-layer="3879" from-port="1" to-layer="3882" to-port="2"/>
		<edge from-layer="3880" from-port="1" to-layer="3882" to-port="3"/>
		<edge from-layer="3881" from-port="1" to-layer="3882" to-port="4"/>
		<edge from-layer="3883" from-port="1" to-layer="3884" to-port="0"/>
		<edge from-layer="3884" from-port="1" to-layer="3889" to-port="0"/>
		<edge from-layer="3885" from-port="1" to-layer="3889" to-port="1"/>
		<edge from-layer="3886" from-port="1" to-layer="3889" to-port="2"/>
		<edge from-layer="3887" from-port="1" to-layer="3889" to-port="3"/>
		<edge from-layer="3888" from-port="1" to-layer="3889" to-port="4"/>
		<edge from-layer="3882" from-port="5" to-layer="3890" to-port="0"/>
		<edge from-layer="3889" from-port="5" to-layer="3890" to-port="1"/>
		<edge from-layer="3890" from-port="2" to-layer="3892" to-port="0"/>
		<edge from-layer="3891" from-port="1" to-layer="3892" to-port="1"/>
		<edge from-layer="3892" from-port="2" to-layer="3894" to-port="0"/>
		<edge from-layer="3893" from-port="1" to-layer="3894" to-port="1"/>
		<edge from-layer="3894" from-port="2" to-layer="3895" to-port="0"/>
		<edge from-layer="3896" from-port="1" to-layer="3897" to-port="0"/>
		<edge from-layer="3897" from-port="1" to-layer="3902" to-port="0"/>
		<edge from-layer="3898" from-port="1" to-layer="3902" to-port="1"/>
		<edge from-layer="3899" from-port="1" to-layer="3902" to-port="2"/>
		<edge from-layer="3900" from-port="1" to-layer="3902" to-port="3"/>
		<edge from-layer="3901" from-port="1" to-layer="3902" to-port="4"/>
		<edge from-layer="2215" from-port="5" to-layer="3903" to-port="0"/>
		<edge from-layer="3902" from-port="5" to-layer="3903" to-port="1"/>
		<edge from-layer="3903" from-port="2" to-layer="3905" to-port="0"/>
		<edge from-layer="3904" from-port="1" to-layer="3905" to-port="1"/>
		<edge from-layer="3905" from-port="2" to-layer="3907" to-port="0"/>
		<edge from-layer="3906" from-port="1" to-layer="3907" to-port="1"/>
		<edge from-layer="3907" from-port="2" to-layer="3909" to-port="0"/>
		<edge from-layer="3908" from-port="1" to-layer="3909" to-port="1"/>
		<edge from-layer="3909" from-port="2" to-layer="3914" to-port="0"/>
		<edge from-layer="3910" from-port="1" to-layer="3914" to-port="1"/>
		<edge from-layer="3911" from-port="1" to-layer="3914" to-port="2"/>
		<edge from-layer="3912" from-port="1" to-layer="3914" to-port="3"/>
		<edge from-layer="3913" from-port="1" to-layer="3914" to-port="4"/>
		<edge from-layer="3915" from-port="1" to-layer="3916" to-port="0"/>
		<edge from-layer="3916" from-port="1" to-layer="3921" to-port="0"/>
		<edge from-layer="3917" from-port="1" to-layer="3921" to-port="1"/>
		<edge from-layer="3918" from-port="1" to-layer="3921" to-port="2"/>
		<edge from-layer="3919" from-port="1" to-layer="3921" to-port="3"/>
		<edge from-layer="3920" from-port="1" to-layer="3921" to-port="4"/>
		<edge from-layer="3704" from-port="5" to-layer="3922" to-port="0"/>
		<edge from-layer="3921" from-port="5" to-layer="3922" to-port="1"/>
		<edge from-layer="3922" from-port="2" to-layer="3924" to-port="0"/>
		<edge from-layer="3923" from-port="1" to-layer="3924" to-port="1"/>
		<edge from-layer="3924" from-port="2" to-layer="3926" to-port="0"/>
		<edge from-layer="3925" from-port="1" to-layer="3926" to-port="1"/>
		<edge from-layer="3926" from-port="2" to-layer="3928" to-port="0"/>
		<edge from-layer="3927" from-port="1" to-layer="3928" to-port="1"/>
		<edge from-layer="3928" from-port="2" to-layer="3933" to-port="0"/>
		<edge from-layer="3929" from-port="1" to-layer="3933" to-port="1"/>
		<edge from-layer="3930" from-port="1" to-layer="3933" to-port="2"/>
		<edge from-layer="3931" from-port="1" to-layer="3933" to-port="3"/>
		<edge from-layer="3932" from-port="1" to-layer="3933" to-port="4"/>
		<edge from-layer="3914" from-port="5" to-layer="3934" to-port="0"/>
		<edge from-layer="3933" from-port="5" to-layer="3934" to-port="1"/>
		<edge from-layer="3935" from-port="1" to-layer="3936" to-port="0"/>
		<edge from-layer="3936" from-port="1" to-layer="3941" to-port="0"/>
		<edge from-layer="3937" from-port="1" to-layer="3941" to-port="1"/>
		<edge from-layer="3938" from-port="1" to-layer="3941" to-port="2"/>
		<edge from-layer="3939" from-port="1" to-layer="3941" to-port="3"/>
		<edge from-layer="3940" from-port="1" to-layer="3941" to-port="4"/>
		<edge from-layer="3934" from-port="2" to-layer="3942" to-port="0"/>
		<edge from-layer="3941" from-port="5" to-layer="3942" to-port="1"/>
		<edge from-layer="3942" from-port="2" to-layer="3944" to-port="0"/>
		<edge from-layer="3943" from-port="1" to-layer="3944" to-port="1"/>
		<edge from-layer="3944" from-port="2" to-layer="3946" to-port="0"/>
		<edge from-layer="3945" from-port="1" to-layer="3946" to-port="1"/>
		<edge from-layer="3946" from-port="2" to-layer="3951" to-port="0"/>
		<edge from-layer="3947" from-port="1" to-layer="3951" to-port="1"/>
		<edge from-layer="3948" from-port="1" to-layer="3951" to-port="2"/>
		<edge from-layer="3949" from-port="1" to-layer="3951" to-port="3"/>
		<edge from-layer="3950" from-port="1" to-layer="3951" to-port="4"/>
		<edge from-layer="3952" from-port="1" to-layer="3953" to-port="0"/>
		<edge from-layer="3953" from-port="1" to-layer="3958" to-port="0"/>
		<edge from-layer="3954" from-port="1" to-layer="3958" to-port="1"/>
		<edge from-layer="3955" from-port="1" to-layer="3958" to-port="2"/>
		<edge from-layer="3956" from-port="1" to-layer="3958" to-port="3"/>
		<edge from-layer="3957" from-port="1" to-layer="3958" to-port="4"/>
		<edge from-layer="3951" from-port="5" to-layer="3959" to-port="0"/>
		<edge from-layer="3958" from-port="5" to-layer="3959" to-port="1"/>
		<edge from-layer="3959" from-port="2" to-layer="3961" to-port="0"/>
		<edge from-layer="3960" from-port="1" to-layer="3961" to-port="1"/>
		<edge from-layer="3961" from-port="2" to-layer="3963" to-port="0"/>
		<edge from-layer="3962" from-port="1" to-layer="3963" to-port="1"/>
		<edge from-layer="3963" from-port="2" to-layer="3968" to-port="0"/>
		<edge from-layer="3964" from-port="1" to-layer="3968" to-port="1"/>
		<edge from-layer="3965" from-port="1" to-layer="3968" to-port="2"/>
		<edge from-layer="3966" from-port="1" to-layer="3968" to-port="3"/>
		<edge from-layer="3967" from-port="1" to-layer="3968" to-port="4"/>
		<edge from-layer="3969" from-port="1" to-layer="3970" to-port="0"/>
		<edge from-layer="3970" from-port="1" to-layer="3975" to-port="0"/>
		<edge from-layer="3971" from-port="1" to-layer="3975" to-port="1"/>
		<edge from-layer="3972" from-port="1" to-layer="3975" to-port="2"/>
		<edge from-layer="3973" from-port="1" to-layer="3975" to-port="3"/>
		<edge from-layer="3974" from-port="1" to-layer="3975" to-port="4"/>
		<edge from-layer="3968" from-port="5" to-layer="3976" to-port="0"/>
		<edge from-layer="3975" from-port="5" to-layer="3976" to-port="1"/>
		<edge from-layer="3976" from-port="2" to-layer="3978" to-port="0"/>
		<edge from-layer="3977" from-port="1" to-layer="3978" to-port="1"/>
		<edge from-layer="3978" from-port="2" to-layer="3980" to-port="0"/>
		<edge from-layer="3979" from-port="1" to-layer="3980" to-port="1"/>
		<edge from-layer="3980" from-port="2" to-layer="3982" to-port="0"/>
		<edge from-layer="3981" from-port="1" to-layer="3982" to-port="1"/>
		<edge from-layer="3982" from-port="2" to-layer="3987" to-port="0"/>
		<edge from-layer="3983" from-port="1" to-layer="3987" to-port="1"/>
		<edge from-layer="3984" from-port="1" to-layer="3987" to-port="2"/>
		<edge from-layer="3985" from-port="1" to-layer="3987" to-port="3"/>
		<edge from-layer="3986" from-port="1" to-layer="3987" to-port="4"/>
		<edge from-layer="3988" from-port="1" to-layer="3989" to-port="0"/>
		<edge from-layer="3989" from-port="1" to-layer="3994" to-port="0"/>
		<edge from-layer="3990" from-port="1" to-layer="3994" to-port="1"/>
		<edge from-layer="3991" from-port="1" to-layer="3994" to-port="2"/>
		<edge from-layer="3992" from-port="1" to-layer="3994" to-port="3"/>
		<edge from-layer="3993" from-port="1" to-layer="3994" to-port="4"/>
		<edge from-layer="3987" from-port="5" to-layer="3995" to-port="0"/>
		<edge from-layer="3994" from-port="5" to-layer="3995" to-port="1"/>
		<edge from-layer="3995" from-port="2" to-layer="3997" to-port="0"/>
		<edge from-layer="3996" from-port="1" to-layer="3997" to-port="1"/>
		<edge from-layer="3997" from-port="2" to-layer="3999" to-port="0"/>
		<edge from-layer="3998" from-port="1" to-layer="3999" to-port="1"/>
		<edge from-layer="3999" from-port="2" to-layer="4000" to-port="0"/>
		<edge from-layer="4001" from-port="1" to-layer="4002" to-port="0"/>
		<edge from-layer="4002" from-port="1" to-layer="4007" to-port="0"/>
		<edge from-layer="4003" from-port="1" to-layer="4007" to-port="1"/>
		<edge from-layer="4004" from-port="1" to-layer="4007" to-port="2"/>
		<edge from-layer="4005" from-port="1" to-layer="4007" to-port="3"/>
		<edge from-layer="4006" from-port="1" to-layer="4007" to-port="4"/>
		<edge from-layer="2215" from-port="5" to-layer="4008" to-port="0"/>
		<edge from-layer="4007" from-port="5" to-layer="4008" to-port="1"/>
		<edge from-layer="4008" from-port="2" to-layer="4010" to-port="0"/>
		<edge from-layer="4009" from-port="1" to-layer="4010" to-port="1"/>
		<edge from-layer="4010" from-port="2" to-layer="4012" to-port="0"/>
		<edge from-layer="4011" from-port="1" to-layer="4012" to-port="1"/>
		<edge from-layer="4012" from-port="2" to-layer="4014" to-port="0"/>
		<edge from-layer="4013" from-port="1" to-layer="4014" to-port="1"/>
		<edge from-layer="4014" from-port="2" to-layer="4019" to-port="0"/>
		<edge from-layer="4015" from-port="1" to-layer="4019" to-port="1"/>
		<edge from-layer="4016" from-port="1" to-layer="4019" to-port="2"/>
		<edge from-layer="4017" from-port="1" to-layer="4019" to-port="3"/>
		<edge from-layer="4018" from-port="1" to-layer="4019" to-port="4"/>
		<edge from-layer="4020" from-port="1" to-layer="4021" to-port="0"/>
		<edge from-layer="4021" from-port="1" to-layer="4026" to-port="0"/>
		<edge from-layer="4022" from-port="1" to-layer="4026" to-port="1"/>
		<edge from-layer="4023" from-port="1" to-layer="4026" to-port="2"/>
		<edge from-layer="4024" from-port="1" to-layer="4026" to-port="3"/>
		<edge from-layer="4025" from-port="1" to-layer="4026" to-port="4"/>
		<edge from-layer="3704" from-port="5" to-layer="4027" to-port="0"/>
		<edge from-layer="4026" from-port="5" to-layer="4027" to-port="1"/>
		<edge from-layer="4027" from-port="2" to-layer="4029" to-port="0"/>
		<edge from-layer="4028" from-port="1" to-layer="4029" to-port="1"/>
		<edge from-layer="4029" from-port="2" to-layer="4031" to-port="0"/>
		<edge from-layer="4030" from-port="1" to-layer="4031" to-port="1"/>
		<edge from-layer="4031" from-port="2" to-layer="4033" to-port="0"/>
		<edge from-layer="4032" from-port="1" to-layer="4033" to-port="1"/>
		<edge from-layer="4033" from-port="2" to-layer="4038" to-port="0"/>
		<edge from-layer="4034" from-port="1" to-layer="4038" to-port="1"/>
		<edge from-layer="4035" from-port="1" to-layer="4038" to-port="2"/>
		<edge from-layer="4036" from-port="1" to-layer="4038" to-port="3"/>
		<edge from-layer="4037" from-port="1" to-layer="4038" to-port="4"/>
		<edge from-layer="4019" from-port="5" to-layer="4039" to-port="0"/>
		<edge from-layer="4038" from-port="5" to-layer="4039" to-port="1"/>
		<edge from-layer="4040" from-port="1" to-layer="4041" to-port="0"/>
		<edge from-layer="4041" from-port="1" to-layer="4046" to-port="0"/>
		<edge from-layer="4042" from-port="1" to-layer="4046" to-port="1"/>
		<edge from-layer="4043" from-port="1" to-layer="4046" to-port="2"/>
		<edge from-layer="4044" from-port="1" to-layer="4046" to-port="3"/>
		<edge from-layer="4045" from-port="1" to-layer="4046" to-port="4"/>
		<edge from-layer="4039" from-port="2" to-layer="4047" to-port="0"/>
		<edge from-layer="4046" from-port="5" to-layer="4047" to-port="1"/>
		<edge from-layer="4047" from-port="2" to-layer="4049" to-port="0"/>
		<edge from-layer="4048" from-port="1" to-layer="4049" to-port="1"/>
		<edge from-layer="4049" from-port="2" to-layer="4051" to-port="0"/>
		<edge from-layer="4050" from-port="1" to-layer="4051" to-port="1"/>
		<edge from-layer="4051" from-port="2" to-layer="4056" to-port="0"/>
		<edge from-layer="4052" from-port="1" to-layer="4056" to-port="1"/>
		<edge from-layer="4053" from-port="1" to-layer="4056" to-port="2"/>
		<edge from-layer="4054" from-port="1" to-layer="4056" to-port="3"/>
		<edge from-layer="4055" from-port="1" to-layer="4056" to-port="4"/>
		<edge from-layer="4057" from-port="1" to-layer="4058" to-port="0"/>
		<edge from-layer="4058" from-port="1" to-layer="4063" to-port="0"/>
		<edge from-layer="4059" from-port="1" to-layer="4063" to-port="1"/>
		<edge from-layer="4060" from-port="1" to-layer="4063" to-port="2"/>
		<edge from-layer="4061" from-port="1" to-layer="4063" to-port="3"/>
		<edge from-layer="4062" from-port="1" to-layer="4063" to-port="4"/>
		<edge from-layer="4056" from-port="5" to-layer="4064" to-port="0"/>
		<edge from-layer="4063" from-port="5" to-layer="4064" to-port="1"/>
		<edge from-layer="4064" from-port="2" to-layer="4066" to-port="0"/>
		<edge from-layer="4065" from-port="1" to-layer="4066" to-port="1"/>
		<edge from-layer="4066" from-port="2" to-layer="4068" to-port="0"/>
		<edge from-layer="4067" from-port="1" to-layer="4068" to-port="1"/>
		<edge from-layer="4068" from-port="2" to-layer="4073" to-port="0"/>
		<edge from-layer="4069" from-port="1" to-layer="4073" to-port="1"/>
		<edge from-layer="4070" from-port="1" to-layer="4073" to-port="2"/>
		<edge from-layer="4071" from-port="1" to-layer="4073" to-port="3"/>
		<edge from-layer="4072" from-port="1" to-layer="4073" to-port="4"/>
		<edge from-layer="4074" from-port="1" to-layer="4075" to-port="0"/>
		<edge from-layer="4075" from-port="1" to-layer="4080" to-port="0"/>
		<edge from-layer="4076" from-port="1" to-layer="4080" to-port="1"/>
		<edge from-layer="4077" from-port="1" to-layer="4080" to-port="2"/>
		<edge from-layer="4078" from-port="1" to-layer="4080" to-port="3"/>
		<edge from-layer="4079" from-port="1" to-layer="4080" to-port="4"/>
		<edge from-layer="4073" from-port="5" to-layer="4081" to-port="0"/>
		<edge from-layer="4080" from-port="5" to-layer="4081" to-port="1"/>
		<edge from-layer="4081" from-port="2" to-layer="4083" to-port="0"/>
		<edge from-layer="4082" from-port="1" to-layer="4083" to-port="1"/>
		<edge from-layer="4083" from-port="2" to-layer="4085" to-port="0"/>
		<edge from-layer="4084" from-port="1" to-layer="4085" to-port="1"/>
		<edge from-layer="4085" from-port="2" to-layer="4087" to-port="0"/>
		<edge from-layer="4086" from-port="1" to-layer="4087" to-port="1"/>
		<edge from-layer="4087" from-port="2" to-layer="4092" to-port="0"/>
		<edge from-layer="4088" from-port="1" to-layer="4092" to-port="1"/>
		<edge from-layer="4089" from-port="1" to-layer="4092" to-port="2"/>
		<edge from-layer="4090" from-port="1" to-layer="4092" to-port="3"/>
		<edge from-layer="4091" from-port="1" to-layer="4092" to-port="4"/>
		<edge from-layer="4093" from-port="1" to-layer="4094" to-port="0"/>
		<edge from-layer="4094" from-port="1" to-layer="4099" to-port="0"/>
		<edge from-layer="4095" from-port="1" to-layer="4099" to-port="1"/>
		<edge from-layer="4096" from-port="1" to-layer="4099" to-port="2"/>
		<edge from-layer="4097" from-port="1" to-layer="4099" to-port="3"/>
		<edge from-layer="4098" from-port="1" to-layer="4099" to-port="4"/>
		<edge from-layer="4092" from-port="5" to-layer="4100" to-port="0"/>
		<edge from-layer="4099" from-port="5" to-layer="4100" to-port="1"/>
		<edge from-layer="4100" from-port="2" to-layer="4102" to-port="0"/>
		<edge from-layer="4101" from-port="1" to-layer="4102" to-port="1"/>
		<edge from-layer="4102" from-port="2" to-layer="4104" to-port="0"/>
		<edge from-layer="4103" from-port="1" to-layer="4104" to-port="1"/>
		<edge from-layer="4104" from-port="2" to-layer="4105" to-port="0"/>
	</edges>
	<meta_data>
		<MO_version value="unknown version"/>
		<cli_parameters>
			<blobs_as_inputs value="True"/>
			<caffe_parser_path value="DIR"/>
			<data_type value="FP16"/>
			<disable_nhwc_to_nchw value="False"/>
			<disable_omitting_optional value="False"/>
			<disable_resnet_optimization value="False"/>
			<disable_weights_compression value="False"/>
			<enable_concat_optimization value="False"/>
			<enable_flattening_nested_params value="False"/>
			<enable_ssd_gluoncv value="False"/>
			<extensions value="DIR"/>
			<framework value="caffe"/>
			<freeze_placeholder_with_value value="{}"/>
			<generate_deprecated_IR_V2 value="False"/>
			<generate_deprecated_IR_V7 value="False"/>
			<generate_experimental_IR_V10 value="True"/>
			<input value="data"/>
			<input_model value="DIR/weights.caffemodel"/>
			<input_model_is_text value="False"/>
			<input_proto value="DIR/deploy.prototxt"/>
			<input_shape value="[1,3,400,680]"/>
			<k value="DIR/CustomLayersMapping.xml"/>
			<keep_quantize_ops_in_IR value="True"/>
			<keep_shape_ops value="True"/>
			<legacy_mxnet_model value="False"/>
			<log_level value="ERROR"/>
			<mean_scale_values value="{}"/>
			<mean_values value="()"/>
			<model_name value="person-detection-action-recognition-0005"/>
			<move_to_preprocess value="False"/>
			<output value="['mbox_loc1/out/conv/flat', 'mbox_main_conf/out/conv/flat/softmax/flat', 'mbox/priorbox', 'out/anchor1', 'out/anchor2', 'out/anchor3', 'out/anchor4']"/>
			<output_dir value="DIR"/>
			<placeholder_data_types value="{}"/>
			<placeholder_shapes value="{'data': array([  1,   3, 400, 680])}"/>
			<progress value="False"/>
			<remove_memory value="False"/>
			<remove_output_softmax value="False"/>
			<reverse_input_channels value="False"/>
			<save_params_from_nd value="False"/>
			<scale_values value="()"/>
			<silent value="False"/>
			<stream_output value="False"/>
			<unset unset_cli_parameters="batch, counts, disable_fusing, disable_gfusing, finegrain_fusing, input_checkpoint, input_meta_graph, input_symbol, mean_file, mean_file_offsets, nd_prefix_name, pretrained_model_name, saved_model_dir, saved_model_tags, scale, tensorboard_logdir, tensorflow_custom_layer_libraries, tensorflow_custom_operations_config_update, tensorflow_object_detection_api_pipeline_config, tensorflow_use_custom_operations_config, transformations_config"/>
		</cli_parameters>
	</meta_data>
	<quantization_parameters>
		<config>{
		'compression': {
			'algorithms': [
				{
					'name': 'DefaultQuantization',
					'params': {
						'preset': 'accuracy',
						'stat_subset_size': 300
					}
				}
			],
			'target_device': 'CPU'
		},
		'engine': {
			'models': [
				{
					'name': 'person-detection-action-recognition-0005',
					'launchers': [
						{
							'framework': 'dlsdk',
							'tags': [
								'FP32'
							],
							'model': 'PATH',
							'weights': 'PATH',
							'adapter': {
								'type': 'action_detection',
								'priorbox_out': 'mbox/priorbox',
								'loc_out': 'mbox_loc1/out/conv/flat',
								'main_conf_out': 'mbox_main_conf/out/conv/flat/softmax/flat',
								'add_conf_out_prefix': 'out/anchor',
								'add_conf_out_count': 4,
								'num_action_classes': 3,
								'detection_threshold': 0.4,
								'action_confidence_threshold': 0.75,
								'action_scale': 3
							},
							'device': 'CPU'
						}
					],
					'datasets': [
						{
							'name': 'action_detection_dataset_3_classes',
							'data_source': 'PATH',
							'annotation_conversion': {
								'converter': 'action_recognition',
								'annotation_file': 'PATH',
								'use_images': true
							},
							'annotation': 'action_recognition.pickle',
							'dataset_meta': 'action_recognition.json',
							'preprocessing': [
								{
									'type': 'resize',
									'dst_width': 680,
									'dst_height': 400
								}
							],
							'postprocessing': [
								{
									'type': 'soft_nms',
									'sigma': 0.6,
									'min_score': 0.4,
									'keep_top_k': 200
								},
								{
									'type': 'clip_boxes',
									'apply_to': 'prediction',
									'boxes_normalized': true
								},
								{
									'type': 'filter',
									'is_empty': true,
									'apply_to': 'prediction',
									'remove_filtered': true
								},
								{
									'type': 'normalize_boxes'
								},
								{
									'type': 'clip_boxes',
									'apply_to': 'annotation',
									'boxes_normalized': true
								}
							],
							'metrics': [
								{
									'type': 'map',
									'name': 'class_agnostic@ap',
									'ignore_difficult': false,
									'include_boundaries': false,
									'allow_multiple_matches_per_ignored': false,
									'distinct_conf': true,
									'annotation_source': 'person_annotation',
									'prediction_source': 'class_agnostic_prediction',
									'label_map': 'person_label_map'
								},
								{
									'type': 'detection_accuracy',
									'use_normalization': true,
									'annotation_source': 'action_annotation',
									'prediction_source': 'action_prediction',
									'label_map': 'action_label_map',
									'ignore_label': 3
								}
							]
						}
					]
				},
				{
					'name': 'person-detection-action-recognition-0005',
					'launchers': [
						{
							'framework': 'dlsdk',
							'tags': [
								'FP16'
							],
							'model': 'PATH',
							'weights': 'PATH',
							'adapter': {
								'type': 'action_detection',
								'priorbox_out': 'mbox/priorbox',
								'loc_out': 'mbox_loc1/out/conv/flat',
								'main_conf_out': 'mbox_main_conf/out/conv/flat/softmax/flat',
								'add_conf_out_prefix': 'out/anchor',
								'add_conf_out_count': 4,
								'num_action_classes': 3,
								'detection_threshold': 0.4,
								'action_confidence_threshold': 0.75,
								'action_scale': 3
							},
							'device': 'CPU'
						}
					],
					'datasets': [
						{
							'name': 'action_detection_dataset_3_classes',
							'data_source': 'PATH',
							'annotation_conversion': {
								'converter': 'action_recognition',
								'annotation_file': 'PATH',
								'use_images': true
							},
							'annotation': 'action_recognition.pickle',
							'dataset_meta': 'action_recognition.json',
							'preprocessing': [
								{
									'type': 'resize',
									'dst_width': 680,
									'dst_height': 400
								}
							],
							'postprocessing': [
								{
									'type': 'soft_nms',
									'sigma': 0.6,
									'min_score': 0.4,
									'keep_top_k': 200
								},
								{
									'type': 'clip_boxes',
									'apply_to': 'prediction',
									'boxes_normalized': true
								},
								{
									'type': 'filter',
									'is_empty': true,
									'apply_to': 'prediction',
									'remove_filtered': true
								},
								{
									'type': 'normalize_boxes'
								},
								{
									'type': 'clip_boxes',
									'apply_to': 'annotation',
									'boxes_normalized': true
								}
							],
							'metrics': [
								{
									'type': 'map',
									'name': 'class_agnostic@ap',
									'ignore_difficult': false,
									'include_boundaries': false,
									'allow_multiple_matches_per_ignored': false,
									'distinct_conf': true,
									'annotation_source': 'person_annotation',
									'prediction_source': 'class_agnostic_prediction',
									'label_map': 'person_label_map'
								},
								{
									'type': 'detection_accuracy',
									'use_normalization': true,
									'annotation_source': 'action_annotation',
									'prediction_source': 'action_prediction',
									'label_map': 'action_label_map',
									'ignore_label': 3
								}
							]
						}
					]
				},
				{
					'name': 'person-detection-action-recognition-0005',
					'launchers': [
						{
							'framework': 'dlsdk',
							'tags': [
								'FP16-INT8'
							],
							'model': 'PATH',
							'weights': 'PATH',
							'adapter': {
								'type': 'action_detection',
								'priorbox_out': 'mbox/priorbox',
								'loc_out': 'mbox_loc1/out/conv/flat',
								'main_conf_out': 'mbox_main_conf/out/conv/flat/softmax/flat',
								'add_conf_out_prefix': 'out/anchor',
								'add_conf_out_count': 4,
								'num_action_classes': 3,
								'detection_threshold': 0.4,
								'action_confidence_threshold': 0.75,
								'action_scale': 3
							},
							'device': 'CPU'
						}
					],
					'datasets': [
						{
							'name': 'action_detection_dataset_3_classes',
							'data_source': 'PATH',
							'annotation_conversion': {
								'converter': 'action_recognition',
								'annotation_file': 'PATH',
								'use_images': true
							},
							'annotation': 'action_recognition.pickle',
							'dataset_meta': 'action_recognition.json',
							'preprocessing': [
								{
									'type': 'resize',
									'dst_width': 680,
									'dst_height': 400
								}
							],
							'postprocessing': [
								{
									'type': 'soft_nms',
									'sigma': 0.6,
									'min_score': 0.4,
									'keep_top_k': 200
								},
								{
									'type': 'clip_boxes',
									'apply_to': 'prediction',
									'boxes_normalized': true
								},
								{
									'type': 'filter',
									'is_empty': true,
									'apply_to': 'prediction',
									'remove_filtered': true
								},
								{
									'type': 'normalize_boxes'
								},
								{
									'type': 'clip_boxes',
									'apply_to': 'annotation',
									'boxes_normalized': true
								}
							],
							'metrics': [
								{
									'type': 'map',
									'name': 'class_agnostic@ap',
									'ignore_difficult': false,
									'include_boundaries': false,
									'allow_multiple_matches_per_ignored': false,
									'distinct_conf': true,
									'annotation_source': 'person_annotation',
									'prediction_source': 'class_agnostic_prediction',
									'label_map': 'person_label_map'
								},
								{
									'type': 'detection_accuracy',
									'use_normalization': true,
									'annotation_source': 'action_annotation',
									'prediction_source': 'action_prediction',
									'label_map': 'action_label_map',
									'ignore_label': 3
								}
							]
						}
					]
				}
			],
			'global_definitions': '../dataset_definitions.yml',
			'stat_requests_number': null,
			'eval_requests_number': null,
			'type': 'accuracy_checker'
		}
	}</config>
		<version value="1.0"/>
		<cli_params value="{'evaluate': False, 'output_dir': 'PATH', 'direct_dump': True, 'log_level': 'INFO', 'pbar': False, 'keep_uncompressed_weights': False}"/>
	</quantization_parameters>
</net>